models/eye_landmark_detector/checkpoint-epoch6.pth.onnx (onnx, 753818 bytes, 20 tensors)

conv_out.weight f4 [14, 512, 1, 1]
0	0xbc9d0bd8	-0.019170687
1	0x3cf8d4d9	0.030374931
2	0x3d032ab2	0.03202314
3	0x3ce777ac	0.028255306
4	0x3d2c8cf1	0.0421266
5	0x3c8c3e64	0.017119594
6	0x3c8b8dae	0.017035332
7	0x3d21059e	0.039311998
8	0x3d11dd9e	0.03561174
9	0xbd0ffd97	-0.03515395
10	0x3cef353a	0.029200185
11	0x3c503b7d	0.012709496
12	0x3cda2b34	0.026631929
13	0x3cf446e9	0.029818969
14	0xbd0b1943	-0.03395964
15	0xbb4b22bd	-0.0030996047
16	0xbca46bc9	-0.020070927
17	0xbc9690e1	-0.01837963
18	0x3c738ae9	0.014864662
19	0xbc711374	-0.014714111
20	0xbd0b510b	-0.034012835
21	0x3b8ce771	0.004300051
22	0x3c971708	0.0184436
23	0xbc9f9822	-0.019481722
24	0x3be5f0b4	0.0070172194
25	0xba91a83a	-0.0011112757
26	0xbd11a351	-0.03555614
27	0xbc9f16c6	-0.019420039
28	0xbcc9138a	-0.02454545
29	0xbcb79e78	-0.022414431
30	0x3c22d6e6	0.009938931
31	0x3d28e1fe	0.041231148
32	0x3d35c677	0.044378724
33	0x3ccd618f	0.025070934
34	0x3ccb8b0f	0.024846582
35	0xbcbafa9a	-0.022824574
36	0xbd17c767	-0.0370554
37	0xbcd60833	-0.026126957
38	0xbca8683b	-0.020557513
39	0xbd030b44	-0.031993166
40	0x3c0b5a1e	0.008505372
41	0x3cf73797	0.030177874
42	0x3cb9bd37	0.022673232
43	0x3ce6d130	0.02817592
44	0x3c799780	0.015233874
45	0x3b005f9b	0.0019588235
46	0x3d1040c7	0.035218026
47	0x3d260d00	0.04053974
48	0x3ccdc9b6	0.025120597
49	0x3d26255d	0.040562976
50	0x3c8fa5db	0.01753514
51	0xbcb7ec87	-0.022451652
52	0x3cf0f3c2	0.029413108
53	0x3c50c92b	0.012743275
54	0xbcf9f92e	-0.030514326
55	0xbbc19b1f	-0.0059083845
56	0xbd27ca3a	-0.040964343
57	0x3cb25192	0.021767411
58	0x3bb48b6f	0.005509786
59	0x3d250e75	0.04029699
60	0x3d0dcfef	0.03462213
61	0xbd2bb89e	-0.04192411
62	0x3afc62e6	0.0019255548
63	0x3adec6e8	0.0016996535
64	0x3cb59fc4	0.022170909
65	0xbc8cf26e	-0.017205443
66	0x3d0bca10	0.03412825
67	0xbd2b559d	-0.041829694
68	0xbcffb19e	-0.031212624
69	0xbc8b459d	-0.017000968
70	0xbb001595	-0.0019544114
71	0x3c88320b	0.016625425
72	0xbd2b82f1	-0.041872922
73	0x3c4cbc81	0.012496115
74	0xbcf05c88	-0.029340997
75	0xbc3d7500	-0.0115635395
76	0xbd079329	-0.033099327
77	0x3d0ae783	0.033912193
78	0x3cf080a4	0.029358216
79	0xbcdfa3d7	-0.027299805
80	0xbc13622c	-0.008995574
81	0xbca3b950	-0.019985825
82	0xbcbe7362	-0.023248378
83	0xbb9641d7	-0.0045854854
84	0x3c90509a	0.017616559
85	0x3d3127be	0.04325079
86	0xbcb384f2	-0.02191398
87	0x3d285ecc	0.04110603
88	0x3d30d3fb	0.04317091
89	0xbca080f1	-0.019592734
90	0xbd0929b7	-0.033487048
91	0x3d1c2d59	0.038129184
92	0x3ccb8068	0.024841502
93	0xbcc4707d	-0.02397942
94	0xbc649379	-0.013951176
95	0x3d071c40	0.032985926
96	0xba5fb565	-0.0008533805
97	0xbcdc569a	-0.026896764
98	0x3818daea	3.6443504e-05
99	0xbc6e544b	-0.014546464
100	0x3c66da63	0.014090153
101	0xbce51728	-0.027965143
102	0x3baa95a1	0.0052058254
103	0x3d2336ee	0.039847307
104	0xbcdeb625	-0.027186463
105	0xbaf026c0	-0.0018322095
106	0xbc8da2e4	-0.017289586
107	0xbc890d46	-0.016729962
108	0x3d2f8bad	0.042857815
109	0xbcf416b0	-0.029795974
110	0x3cf54c09	0.029943483
111	0xbc6bbbde	-0.014388053
112	0x3ce520c7	0.027969731
113	0x3bd264c4	0.0064207036
114	0xbb899447	-0.0041985842
115	0x3c7fddf2	0.015616881
116	0xbcd908dc	-0.026493482
117	0xbc8718ea	-0.016491372
118	0x3c4512d8	0.0120284185
119	0x3b29def4	0.0025920244
120	0x3b99e144	0.004696043
121	0x3c572aea	0.01313279
122	0xbd0df965	-0.03466167
123	0x3cae0d20	0.021246493
124	0xbcfc9566	-0.030832957
125	0x3c98d988	0.018658414
126	0xbc5200d9	-0.012817585
127	0x3be8f56f	0.007109336
128	0x3c2b4e11	0.010455624
129	0x3cb36b4b	0.021901747
130	0xbc8b1a7c	-0.016980402
131	0xbd1b5ad2	-0.03792841
132	0x3c31184d	0.010809016
133	0x3c6a0b43	0.014284912
134	0x3ceed00d	0.02915194
135	0x3d03e2c3	0.03219868
136	0xbcdfa0ec	-0.027298413
137	0x3d28ee3e	0.04124283
138	0x3d163aaa	0.03667704
139	0x3c1b89d2	0.009493308
140	0x3ce2cdd6	0.02768604
141	0x3c4ee27d	0.012627241
142	0x3cc09bdd	0.023511821
143	0x3cd34499	0.025789546
144	0x3ce67e61	0.028136434
145	0x3d06e51b	0.032933336
146	0x3d2a37cd	0.041557122
147	0xbd032c78	-0.03202483
148	0x3cd6a71c	0.02620273
149	0x3c0d5e7d	0.008628485
150	0xbc7ab759	-0.015302503
151	0xbd11cc53	-0.03559525
152	0x3c8c0259	0.017090963
153	0xbcbd1c6a	-0.023084838
154	0x3c4fd313	0.012684601
155	0x3c874d87	0.01651646
156	0x3d0f49e1	0.034982566
157	0xbd0adf22	-0.033904202
158	0x3d0f410e	0.03497415
159	0x3d20d6db	0.039267402
160	0xbca3eda5	-0.020010779
161	0x3c8a0cfc	0.016851895
162	0xbcba751e	-0.022760924
163	0x3c03be32	0.008040952
164	0x3cf75730	0.030192941
165	0xbcb5c458	-0.02218835
166	0xbc26f486	-0.010190135
167	0xbd010541	-0.03149915
168	0x3cc750fc	0.024330609
169	0xbccb5056	-0.02481858
170	0xba3133d1	-0.00067597354
171	0x3c2ddc21	0.010611565
172	0x3d042434	0.03226109
173	0xbc939a7d	-0.018018002
174	0xbc6a2c83	-0.014292839
175	0x3b607a62	0.0034252633
176	0xbd110d11	-0.03541285
177	0xbce82aa2	-0.028340641
178	0x3c383193	0.011242288
179	0xbcdb6812	-0.026783023
180	0x3ce60989	0.028080719
181	0x3b42ddc3	0.002973423
182	0x3c25af4c	0.010112595
183	0x3cbd732c	0.023126207
184	0x3c9c17fb	0.019054404
185	0x3bcc1cae	0.006229005
186	0x3d0cd2d7	0.03438076
187	0xbbfe1781	-0.0077542667
188	0x3c3d06c3	0.011537257
189	0xbcfd050f	-0.030886201
190	0x3d28d5a2	0.04121936
191	0x3d0b1fd8	0.033965915
192	0xbca93f59	-0.02066009
193	0xbc9ee2cd	-0.019395256
194	0x3c7cf82a	0.015440026
195	0xbd05ab94	-0.032634333
196	0x3cfa8fa2	0.030586068
197	0xbcbff1b0	-0.023430675
198	0xbcc3fb6e	-0.023923602
199	0xbd198589	-0.037480865
200	0x3bbda0ca	0.00578699
201	0xbc84fc1d	-0.016233498
202	0xbd0eb6f4	-0.034842446
203	0xbcdaf1ca	-0.026726622
204	0xbc618602	-0.01376486
205	0x3c90482d	0.017612541
206	0x3d0cd392	0.034381457
207	0xbc8a3fa9	-0.016876059
208	0x3d15dbf7	0.036586728
209	0xbcd736c4	-0.026271231
210	0xbce26e09	-0.02764036
211	0xbcc5bff8	-0.02413939
212	0x3d43706e	0.047714643
213	0xbcabb580	-0.02096057
214	0x3d3a22c8	0.045443326
215	0xbb0979d1	-0.002097715
216	0x3c08c735	0.008348276
217	0xbc9786ed	-0.018496955
218	0xbd273f04	-0.04083158
219	0xbc1d5fa2	-0.00960532
220	0xbcb2496f	-0.021763531
221	0x3c7d34cb	0.015454481
222	0x3c963a5a	0.018338371
223	0xbcd4eb8f	-0.02599123
224	0x3c2a6eb9	0.010402375
225	0x3c52d031	0.0128670195
226	0x3c21714c	0.009853672
227	0x3c558e4c	0.0130344145
228	0x3c61e1f3	0.013786781
229	0xbd054d35	-0.032544333
230	0x3aed60f6	0.0018110562
231	0x3aa4495e	0.0012534072
232	0xbd17f093	-0.037094664
233	0x3cb2a8a8	0.021808937
234	0xbc092ccc	-0.008372497
235	0x3c7935d8	0.015210591
236	0x3d3573b1	0.044299785
237	0x3c4e86ac	0.01260535
238	0xbb27672e	-0.0025543678
239	0xbc11ecab	-0.008906524
240	0xbd0904c5	-0.033451814
241	0x3b25c4e6	0.0025294363
242	0x3d248fab	0.040176075
243	0xbcec7e0c	-0.028868698
244	0x3d17c666	0.037054442
245	0x3c061ff8	0.008186333
246	0xbd323d42	-0.04351545
247	0xbcac0201	-0.02099705
248	0x3c5dd568	0.01353965
249	0x3d2d1c8e	0.04226356
250	0xbd21a558	-0.039464325
251	0x3c83a8a0	0.016071618
252	0xbc5c903f	-0.013462125
253	0x3d08a9d9	0.033365104
254	0x3cdf6805	0.02727128
255	0xbcea40a8	-0.028595284

conv_out.bias f4 [14]
0	0xbc92e200	-0.01793003
1	0x3a71e969	0.0009228201
2	0xbca39ffe	-0.019973751
3	0x3c262b8a	0.010142216
4	0x3d2d129e	0.042254083
5	0x3d0cb864	0.034355536
6	0x3c9e9a62	0.019360725
7	0xbd07da26	-0.033167027
8	0x3cf1d5f8	0.029520974
9	0xbca61e59	-0.020278143
10	0x3d01cde4	0.031690493
11	0x3cb19e64	0.021681972
12	0xbcc5daa4	-0.024152108
13	0x3d0dfd12	0.034665175

88 f4 [32, 3, 3, 3]
0	0xbf1f2dc9	-0.6217924
1	0xbd0a6811	-0.03379065
2	0xbed2ab8f	-0.41146514
3	0x3ed74b20	0.42049503
4	0xbf6487f5	-0.89269954
5	0x3f639592	0.889001
6	0xbf53c976	-0.8272928
7	0xbf400969	-0.7501436
8	0xbf1948e6	-0.5987686
9	0x3eb80ff5	0.35949674
10	0xbefc548b	-0.4928325
11	0x3f14da4a	0.5814558
12	0xbf7a2611	-0.97714335
13	0xbf1cec8b	-0.61298436
14	0xbebb1713	-0.36541042
15	0xbe63fdd4	-0.22264796
16	0xbf36a50b	-0.71345586
17	0x3f5e442e	0.86822784
18	0xbed9fbf2	-0.42575032
19	0x3e96bd99	0.29441527
20	0x3f760710	0.96104527
21	0x3e4fd175	0.20294745
22	0x3ec7f529	0.3905423
23	0x3f93ae66	1.1537597
24	0xbf034727	-0.51280445
25	0x3f047871	0.5174628
26	0xbec56cb3	-0.38559493
27	0x3f8d009f	1.1015815
28	0x3f82a751	1.0207311
29	0xbf954627	-1.1662034
30	0x3f8bf2ef	1.0933512
31	0x3ec076c8	0.37590623
32	0x3df40d41	0.119165905
33	0x3f1e4e23	0.6183798
34	0x3f09d0c1	0.5383416
35	0xbf2d79ee	-0.67764175
36	0xbf373ec9	-0.7158018
37	0xbe798de2	-0.2437053
38	0xbf69a315	-0.9126447
39	0x3e344ee0	0.17608213
40	0xbecba372	-0.39773136
41	0xbf81ae29	-1.0131274
42	0x3d0721f0	0.03299135
43	0x3f2c6f28	0.6735711
44	0xbf1d9fd4	-0.61572003
45	0x3e9cc4c5	0.30618873
46	0xbdbaa787	-0.091139846
47	0x3db9d99f	0.09074711
48	0x3f918513	1.1368736
49	0x3f082e34	0.531955
50	0x3ccd34fe	0.025049683
51	0x3ec8b3e2	0.3919974
52	0xbe1efd42	-0.15526298
53	0xbd974d8a	-0.07387836
54	0xbcebd327	-0.028787209
55	0xbf42bca3	-0.76069087
56	0xbf3ae440	-0.7300453
57	0x3f52282a	0.82092535
58	0x3da5aba1	0.08089376
59	0xbf4895df	-0.78353685
60	0x3e7257f8	0.2366637
61	0x3f3c7ac5	0.7362483
62	0xbf5abcb8	-0.8544421
63	0xbf031cfc	-0.512161
64	0xbe93d79d	-0.28875437
65	0xbe1461f2	-0.14490488
66	0xbe143793	-0.14474325
67	0xbd8f11ed	-0.06985841
68	0xbf6e1341	-0.9299813
69	0x3f0339ae	0.5125989
70	0x3f483000	0.7819824
71	0x3f074001	0.5283204
72	0xbf0b0cd3	-0.54316443
73	0xbf26b07a	-0.6511303
74	0x3e40eafd	0.18839641
75	0x3da8d7f0	0.08244312
76	0x3ec8b6be	0.3920192
77	0xbf6e96ef	-0.93199056
78	0x3d32586b	0.043541353
79	0x3f20f33c	0.62871146
80	0x3ecb7a1c	0.397416
81	0x3dc11272	0.09427346
82	0x3dcd88e1	0.10035873
83	0x3d0eb3a6	0.034839295
84	0xbdd07830	-0.10179174
85	0xbd62d1aa	-0.055375732
86	0xbe1c3d21	-0.15257694
87	0x3ea435c1	0.3207226
88	0x3e53dfeb	0.20690887
89	0x3dcc77ba	0.099837735
90	0xbe2e2f70	-0.17010283
91	0x3e94444b	0.28958353
92	0x3e2d3d35	0.1691788
93	0x3e9d1615	0.3068091
94	0xbd77b2f4	-0.060473397
95	0x3df0d49d	0.11759303
96	0x3ebcc57e	0.36869425
97	0x3e7d1c94	0.24717933
98	0x3e7ea44d	0.24867363
99	0x3c5782b8	0.013153724
100	0x3e929ff9	0.28637674
101	0xbe445aae	-0.19175217
102	0x3ddc63ca	0.10761221
103	0xbdee3298	-0.11630744
104	0xbcece81d	-0.028919274
105	0xbd171fc3	-0.036895525
106	0x3d4e99ea	0.050439753
107	0x3e918ac2	0.28426176
108	0x3ebeefad	0.37292233
109	0xbe646a3f	-0.22306155
110	0x3f0f5c12	0.55999863
111	0xbea00d10	-0.31259966
112	0x3e8cd1cb	0.2750381
113	0xbc94c51a	-0.018160392
114	0xbdc2b745	-0.09507612
115	0xbcb22fe6	-0.021751355
116	0xbf12bf41	-0.5732308
117	0x3dc5fd14	0.096674114
118	0x3ccad999	0.024761962
119	0x3f2a64fd	0.66560346
120	0xbe2a3424	-0.16621453
121	0x3e25dab9	0.16196717
122	0x3f46e030	0.7768583
123	0xbe8fb1d6	-0.28065366
124	0x3f15bf29	0.5849481
125	0xbec10538	-0.37699294
126	0x3eaab447	0.33340666
127	0x3d8576b6	0.06516783
128	0x3e7c8d95	0.24663384
129	0x3f22d1a6	0.6360115
130	0xbec9ddd3	-0.3942705
131	0x3e7669ab	0.24063747
132	0x3d1217fc	0.035667405
133	0xbf2788db	-0.654432
134	0xbe44f666	-0.19234619
135	0xbf29041f	-0.66021913
136	0x3e97beb8	0.29637694
137	0x3d4e0183	0.05029441
138	0xbd055f71	-0.032561723
139	0xbead4d37	-0.33847973
140	0xbbbddcf2	-0.005794161
141	0xbe9a11c1	-0.3009167
142	0x3e298a7e	0.16556737
143	0x3f357f9b	0.70897835
144	0x3a502ad3	0.00079409516
145	0xbed5dd89	-0.4177058
146	0xbf03da8c	-0.5150535
147	0xbd4c820e	-0.049928717
148	0xbf3136ec	-0.6922443
149	0xbf1db955	-0.6161092
150	0xbf133993	-0.57509726
151	0xbeae39d9	-0.3402851
152	0xbc734ce3	-0.014849874
153	0x3ede4ac5	0.4341642
154	0x3e8119e2	0.2521506
155	0x3f188b2c	0.5958736
156	0xbf1e41c1	-0.6181908
157	0xbcd1fd36	-0.025633436
158	0xbf3a1160	-0.7268276
159	0x3ed36305	0.41286483
160	0x3dd0ab22	0.10188891
161	0x3f34ae7b	0.70578736
162	0xbfe223d0	-1.7667179
163	0x3fc3cce2	1.52969
164	0x3fdc24a7	1.7198685
165	0x3fc028d7	1.5012463
166	0x3e9eed41	0.31040385
167	0x40010d68	2.0164433
168	0x3fa89b5d	1.3172413
169	0x3fb9e25e	1.4522207
170	0xbd3865b5	-0.04501887
171	0xbff0f7b9	-1.8825599
172	0xbe18f0f3	-0.14935665
173	0x3ebb5bd1	0.36593488
174	0xbfc8fa08	-1.5701303
175	0xbf95500d	-1.1665055
176	0xbfeae08f	-1.834978
177	0xbf484ca3	-0.7824194
178	0x3fdade9b	1.7099184
179	0x3ee20810	0.44146776
180	0xbeda4489	-0.42630413
181	0xbd278a97	-0.040903654
182	0x3fa1e76e	1.2648752
183	0xbffe41fb	-1.9863886
184	0xbfc98d7c	-1.5746303
185	0xbf0b333f	-0.5437507
186	0xbf9f8547	-1.2462548
187	0x3f7a376a	0.97740805
188	0x3fc5da20	1.5457191
189	0xbf17adf7	-0.59249824
190	0xbf1928ca	-0.59827864
191	0xbf3d2197	-0.7387938
192	0x3eacf170	0.33777952
193	0x3f0839bf	0.53213114
194	0xbf31d115	-0.6945966
195	0xbe830a05	-0.25593582
196	0x3e6714d2	0.22566536
197	0xbef1cfa1	-0.4722872
198	0x3f2fd5c9	0.68685585
199	0x3e263643	0.16231637
200	0xbe7fdcde	-0.24986598
201	0x3df21958	0.1182124
202	0x3e3dea2f	0.18546365
203	0xbecbd384	-0.3980981
204	0xbef34fe1	-0.4752188
205	0x3bda5f7f	0.006664216
206	0xb9cfb147	-0.000396142
207	0x3dd49593	0.103800915
208	0xbdd56a08	-0.104206145
209	0x3ecb669a	0.39726716
210	0xbdfd39f1	-0.12364567
211	0xbdd070d5	-0.10177771
212	0x3e0ef2fd	0.1395988
213	0xbebef762	-0.37298113
214	0x3e42c08d	0.19018765
215	0xbe2cb4eb	-0.1686589
216	0x3e1b7ac6	0.15183553
217	0xbe1a1030	-0.15045238
218	0xbd1cc0f2	-0.038269944
219	0xbc408c94	-0.011752266
220	0xbe86cc95	-0.2632796
221	0xbea16571	-0.31522706
222	0x3d479d10	0.04873377
223	0xbde00ee5	-0.10940341
224	0x3e249dc5	0.1607581
225	0xbea7a9c9	-0.32746723
226	0xbe09f6ef	-0.13473104
227	0xbea38207	-0.3193514
228	0x3db1b1ef	0.08676516
229	0xbc233e2a	-0.009963552
230	0xbe0dfc5f	-0.13865803
231	0xbe06006e	-0.13086101
232	0xbe8a0d48	-0.26963258
233	0x3d735a8f	0.059412535
234	0x3b59238c	0.003313276
235	0xbe4b7162	-0.19867471
236	0x3d949853	0.07255616
237	0xbd4de5fb	-0.050268155
238	0xbea1fb2b	-0.31636938
239	0x3dc89895	0.09794728
240	0x3dc90edf	0.098172896
241	0xbd9b664c	-0.07587871
242	0xbe8475a7	-0.25871012
243	0x3da53d34	0.08068314
244	0x3f07e0ba	0.5307728
245	0x3e93bafa	0.2885359
246	0xbeea3514	-0.4574362
247	0xbe87b4f7	-0.26505253
248	0x3eabf806	0.33587664
249	0x3efa2c83	0.48862085
250	0x3e989365	0.29799953
251	0xbeb60c42	-0.35556227
252	0x3f12279e	0.570917
253	0xbed20997	-0.4102294
254	0xbe92b30e	-0.28652233
255	0x3bb2a005	0.0054512047

89 f4 [32]
0	0xbe030722	-0.1279569
1	0x3e3e0625	0.18557031
2	0xbe526641	-0.2054682
3	0x3e3e2256	0.18567786
4	0x3e8090e3	0.2511054
5	0xbdfc714e	-0.12326299
6	0xbb6e2bd0	-0.0036342032
7	0xbe50d3a6	-0.20393237
8	0xbe5402ac	-0.20704144
9	0x3e1740b6	0.14770779
10	0xbe3619c7	-0.17783271
11	0x3df34724	0.11878803
12	0x3d384bc8	0.044994146
13	0x3e28418c	0.16431254
14	0xbe418f21	-0.18902256
15	0x3dc1acf5	0.09456817
16	0xba6fa280	-0.0009141341
17	0xbe2040c7	-0.1564971
18	0xbe3eaaa2	-0.18619779
19	0x3c19d4c0	0.009389102
20	0x3e24ad1d	0.16081662
21	0xbe285ed8	-0.1644243
22	0x3e23b06a	0.15985265
23	0xbe5116e7	-0.20418893
24	0xbde0dfa5	-0.10980157
25	0xbe060660	-0.1308837
26	0xbe2f2592	-0.17104176
27	0xbe364824	-0.17800957
28	0x3e547405	0.20747383
29	0x3e0fc316	0.14039263
30	0xbe75a5af	-0.23988985
31	0x3e53b3a5	0.20673998

91 f4 [32, 1, 3, 3]
0	0x3e6d70ed	0.23187609
1	0x3f6fcbb1	0.93670183
2	0xbde34b44	-0.1109834
3	0x3fb567ac	1.4172263
4	0xbfd8e20c	-1.6943984
5	0xbfa45d2d	-1.2840935
6	0xbf019ef1	-0.5063315
7	0x3feefd35	1.8671023
8	0xbfab0fbc	-1.3364177
9	0xbcce6d33	-0.025198555
10	0xbe0d8637	-0.1382073
11	0xbe80908a	-0.25110275
12	0xbe537598	-0.20650327
13	0xbe7c7fdc	-0.2465815
14	0xbe50ff99	-0.20410003
15	0xbe50ae6a	-0.20379034
16	0xbcc9ff11	-0.024657758
17	0x3ea1f00a	0.31628448
18	0xbe660774	-0.2246378
19	0xbd92c787	-0.07166963
20	0xbe378fb8	-0.17925918
21	0x3d2f2377	0.04275843
22	0x3e5e60d1	0.2171662
23	0xbe867015	-0.26257387
24	0xbe7c52dc	-0.24640983
25	0x3d99a03d	0.07501266
26	0xbeeb4dfb	-0.45957932
27	0x3fce2d96	1.6107662
28	0xbf6af558	-0.91780615
29	0x3f872532	1.0558226
30	0x3ff0912d	1.8794304
31	0x3eee4c30	0.465425
32	0xc027b77b	-2.6205738
33	0xbf2d12cc	-0.67606807
34	0x4003dd42	2.0603795
35	0xc01f0923	-2.4849327
36	0x3f14064c	0.5782211
37	0xbee777e9	-0.45208672
38	0xbe0eb2fa	-0.13935462
39	0x3f0c66c2	0.54844296
40	0xbf037b0d	-0.51359636
41	0xbf2285d7	-0.63485473
42	0xbdb1d883	-0.086838745
43	0xbee64eba	-0.4498194
44	0xbe00ef91	-0.12591387
45	0x3f8d3a2d	1.1033379
46	0x3f615d2f	0.8803281
47	0xbfb2a309	-1.3956004
48	0xbe966c9a	-0.2937973
49	0xbf8a230f	-1.0791949
50	0xbf8094a0	-1.0045357
51	0x3f598243	0.8496439
52	0x3ed5fd40	0.41794777
53	0x3fb65401	1.4244386
54	0x3e2dfeb8	0.16991699
55	0xbef5023f	-0.47853276
56	0x3cfa5968	0.03056021
57	0xbec3fb9e	-0.38277906
58	0xbf053fbf	-0.52050394
59	0xbef4e910	-0.47834063
60	0x3f0eb96f	0.557517
61	0xbe96c617	-0.29448006
62	0x3eb24a27	0.348222
63	0xbe959076	-0.29211777
64	0x3ed6a1a3	0.41920194
65	0xbe9d86e7	-0.30766985
66	0x3e4b4e18	0.19854009
67	0xbf0970d4	-0.5368779
68	0xbe6f8569	-0.23390736
69	0xbd9447ed	-0.07240281
70	0xbd609d96	-0.054837786
71	0xbe57d7bf	-0.21078394
72	0xbe019e3a	-0.12658015
73	0xbd4de6cd	-0.050268937
74	0x3f3a9897	0.72889084
75	0xbf3e6da7	-0.74386066
76	0xbf301677	-0.6878428
77	0x3eb934e3	0.36173162
78	0xbe19484d	-0.14968987
79	0xbe711f89	-0.23547186
80	0xbd6ec13a	-0.058289744
81	0x3f943d63	1.1581234
82	0xbf95735e	-1.1675832
83	0x3f5f4571	0.87215334
84	0x3f22d170	0.63600826
85	0xbf2d8e63	-0.6779539
86	0xbe5513d9	-0.20808353
87	0xbe9e7074	-0.3094517
88	0xbefb9eca	-0.49144584
89	0xbf30da48	-0.6908307
90	0x3e6c6aab	0.23087566
91	0x3e7bc433	0.24586563
92	0x3d820827	0.06349211
93	0x3df4f530	0.11960828
94	0x3e4ee675	0.202051
95	0x3e157c58	0.14598215
96	0x3e738071	0.23779465
97	0x3db30a5e	0.08742212
98	0xbe821af8	-0.254112
99	0x3f1188f9	0.5684963
100	0x3d09ebc5	0.033672113
101	0xbe928e30	-0.28624105
102	0x3d4dbcc9	0.050228868
103	0xbee55276	-0.44789475
104	0xbea3e6ff	-0.32012174
105	0x3db63aff	0.08897971
106	0xbe44d01f	-0.19220017
107	0xbeebdd58	-0.4606731
108	0xbdb30060	-0.08740306
109	0x3fab7feb	1.3398412
110	0xbd8fd62e	-0.070232734
111	0x3e4e3ae7	0.20139657
112	0xbd9b02ac	-0.07568869
113	0xbf80bb6e	-1.0057199
114	0x3e693dbf	0.2277746
115	0xbf924139	-1.1426154
116	0x3f105d5d	0.5639246
117	0x3f005286	0.5012592
118	0x3f0b027b	0.5430066
119	0xbddefe42	-0.108883396
120	0xbf1afd88	-0.6054311
121	0x3d84d84f	0.0648657
122	0x3edfb0ab	0.43689474
123	0x3d995fda	0.07488985
124	0xbf105f96	-0.5639585
125	0x3f28df68	0.6596589
126	0xbf8a953b	-1.0826792
127	0x3eb09e22	0.34495646
128	0x3fa221eb	1.2666601
129	0xbf18e23b	-0.597202
130	0xbe5c89ad	-0.21536894
131	0x3ea4ca24	0.3218547
132	0xbe8700cf	-0.26367804
133	0x3f349eda	0.7055489
134	0x3ebb6f73	0.36608467
135	0xbe08e94a	-0.13370243
136	0xbd2b5454	-0.04182847
137	0xbf389913	-0.7210857
138	0xbeb76516	-0.3581931
139	0xbfbdc82b	-1.4826711
140	0x3feaccd9	1.8343765
141	0xbe71d86d	-0.23617716
142	0x3f0655b8	0.52474546
143	0x3f44de24	0.7690146
144	0x3ebf8e24	0.37413132
145	0xbe512167	-0.20422898
146	0xbef565de	-0.4792928
147	0x3c16091c	0.009157445
148	0xbeed3bb2	-0.46334606
149	0xbe529efc	-0.2056846
150	0xbe537aac	-0.20652264
151	0xbf07dafb	-0.5306851
152	0x3e841184	0.25794613
153	0x3ee0bc16	0.43893498
154	0x3b8bcd65	0.0042664283
155	0x3e7ce3d6	0.24696288
156	0x3e9ca549	0.30594853
157	0x3eaa2d9d	0.33237925
158	0x3cec1873	0.028820252
159	0x3e950085	0.2910196
160	0xbe8d9d1e	-0.27658933
161	0xbebf8ea3	-0.3741351
162	0x3dba3ed6	0.09094016
163	0xbde9d7da	-0.114181235
164	0x3e78d360	0.24299383
165	0x3dc46af3	0.095907114
166	0xbd17e50b	-0.037083667
167	0x3e73c93f	0.23807238
168	0x3e6e854c	0.23293036
169	0x3e436218	0.19080389
170	0x3e2a594d	0.16635628
171	0xbf0e2a02	-0.5553285
172	0x3fae64b3	1.3624481
173	0x3f677431	0.9041167
174	0xbf65ea48	-0.8981061
175	0xbfdaf010	-1.7104511
176	0x401f642d	2.4904892
177	0xbff3d623	-1.9049724
178	0x3f0cd45d	0.5501154
179	0xbf6d2f24	-0.92650056
180	0xbfd6dcdd	-1.6786152
181	0xbf6828c9	-0.90687233
182	0xbf41efef	-0.75756735
183	0x3f6a423b	0.9150731
184	0xbe10ffd0	-0.14160085
185	0x3fd7f8a1	1.687275
186	0x3e50b662	0.20382074
187	0xbd69d5a2	-0.0570885
188	0x3f95532c	1.1666007
189	0xbd96d9aa	-0.07365735
190	0x3f828b1a	1.01987
191	0x3f447eb4	0.76755834
192	0x3dc43380	0.09580135
193	0xbf8fe07a	-1.124038
194	0x3fbb2d7b	1.4623255
195	0xbf903dee	-1.12689
196	0x3f24fca9	0.6444803
197	0xbfceefad	-1.6166893
198	0x3d323d5e	0.043515556
199	0x3d56ea3c	0.052469477
200	0x3e8fb006	0.28063983
201	0xbea9c17f	-0.33155438
202	0xbeddc36f	-0.43313166
203	0xbdd4bcf3	-0.10387602
204	0xbe81fc48	-0.25387788
205	0xbf11cdd7	-0.5695471
206	0x3eab61ec	0.33473146
207	0x3e1ff9d1	0.15622641
208	0x3ec1e13d	0.37867156
209	0x3ecf3d47	0.40476438
210	0xbe1b75a9	-0.15181603
211	0xbe5af9cd	-0.21384354
212	0xbecf61e7	-0.4050438
213	0x3f363f2b	0.71190137
214	0x3ecc5610	0.3990941
215	0xbd5dfdbe	-0.054197066
216	0xbeba4732	-0.36382443
217	0x3fbf6bd7	1.4954785
218	0xbeeba378	-0.46023154
219	0xbeff1ba5	-0.4982578
220	0x3f0baefa	0.5456387
221	0xbf2f34f3	-0.6844017
222	0x3dffb1bd	0.12485073
223	0x3faa1d2a	1.329015
224	0xbfb15a58	-1.3855696
225	0x3f316896	0.6930021
226	0xbf234ab0	-0.6378584
227	0xbe896b4c	-0.26839674
228	0x3f2572b8	0.6462817
229	0x3e232496	0.15931925
230	0x3f281da8	0.6567025
231	0xbe5a6a19	-0.21329536
232	0x3f5347d5	0.8253148
233	0xbf4aedc9	-0.7926908
234	0x3f267409	0.65020806
235	0xbfa450e8	-1.2837191
236	0xbf86f699	-1.0544006
237	0x3fbd7f5c	1.4804492
238	0xc01c29d0	-2.440052
239	0x3f920c18	1.1409941
240	0x3f4eb5e4	0.80746293
241	0xbf1e10de	-0.6174449
242	0x3fb2283f	1.3918532
243	0x3f3fd60c	0.74935985
244	0xbf067647	-0.52524227
245	0x3f216b2a	0.63054144
246	0xbf07efab	-0.5310008
247	0xbec90a9e	-0.39265913
248	0x3f43c8a6	0.7647804
249	0x3f22f893	0.63660544
250	0x3ef538c1	0.47894862
251	0xbf49c025	-0.78808814
252	0x3de0a176	0.10968296
253	0x3d4773c8	0.048694402
254	0x3cf20421	0.029542984
255	0x3e3c09ac	0.18363065

92 f4 [32]
0	0xbaad6a5f	-0.0013230554
1	0xbca93fa0	-0.020660222
2	0x3d095ce3	0.03353585
3	0x3d6c881c	0.05774699
4	0x3e164def	0.14678167
5	0xbc9f586f	-0.019451348
6	0xbbe925d0	-0.0071151033
7	0xbd5582ed	-0.052126814
8	0xbc1e0773	-0.009645331
9	0xbb92a79c	-0.004475547
10	0xbc25121a	-0.0100751165
11	0x3cc001c4	0.023438342
12	0xbde70b0e	-0.112814054
13	0x3d2f8918	0.042855352
14	0x3d79ef52	0.06101925
15	0x3d95bc78	0.07311338
16	0x3e212f13	0.15740614
17	0xbd095ffc	-0.033538803
18	0xbce530bd	-0.027977342
19	0xbd966700	-0.073438644
20	0xbce04b1d	-0.027379567
21	0xbcc07fb4	-0.023498394
22	0xbd9c0cc8	-0.07619625
23	0x3ccdc831	0.025119873
24	0xbd95c45c	-0.07312843
25	0xbcb507ae	-0.022098389
26	0xba900110	-0.0010986645
27	0x3ce23317	0.027612252
28	0xbd037eae	-0.032103233
29	0x3d01b006	0.03166201
30	0xbd2410f8	-0.040055245
31	0x3d77558c	0.06038432

94 f4 [64, 32, 1, 1]
0	0x3ee4ba18	0.44673228
1	0xbedfc288	-0.43703103
2	0x3e954d06	0.29160327
3	0x3ed6e524	0.41971695
4	0xbeae34eb	-0.34024748
5	0xbe558b29	-0.20853867
6	0x3e6353a9	0.22199883
7	0xbef0a933	-0.4700409
8	0x3e5247b2	0.20535162
9	0x3eac5731	0.33660272
10	0xbec53d2d	-0.38523236
11	0xbcdef0f6	-0.027214509
12	0x3e0a211c	0.13489193
13	0xbe2dcb5f	-0.16972111
14	0x3ecc709c	0.39929664
15	0xbe0205a9	-0.12697472
16	0x3e35af4c	0.17742652
17	0x3df5e9ae	0.120074615
18	0xbe9a78f9	-0.3017042
19	0xbe3bb143	-0.18329339
20	0xbbabba40	-0.0052407086
21	0x3eb775de	0.35832113
22	0xbecee94a	-0.4041236
23	0x3e5f28eb	0.21792953
24	0x3eeb1af5	0.45919004
25	0x3d6c83a1	0.05774272
26	0xbeb12fe9	-0.34606865
27	0x3e5937e8	0.21212733
28	0xbec7720c	-0.38954198
29	0x3e62a8ec	0.22134751
30	0xbdf3e63c	-0.11909148
31	0xbe257fab	-0.16161983
32	0xbeaffb04	-0.34371197
33	0x3d936ed8	0.07198876
34	0xbe999add	-0.30000964
35	0x3ecbe60c	0.3982395
36	0x3d561095	0.052261908
37	0xbec03d3a	-0.37546712
38	0xbe1dd593	-0.15413503
39	0x3e91652e	0.28397506
40	0x3e870c8a	0.26376754
41	0xbe6d8e7b	-0.23198883
42	0x3e0b6e91	0.13616396
43	0x3e3d0903	0.18460469
44	0xbed0abb2	-0.40755993
45	0x3e40f75f	0.18844365
46	0xbeb7e7c5	-0.35919014
47	0xbe3016b2	-0.17196158
48	0x3ce54f0a	0.02799179
49	0x3e843ea5	0.25829044
50	0xbea5d407	-0.32388327
51	0x3e6c53a2	0.23078778
52	0x3e5a88b6	0.21341214
53	0x3ebec433	0.37259063
54	0xbd4cbd12	-0.049985
55	0xbd3f5def	-0.04672044
56	0x3ea7bb88	0.32760262
57	0xbed31d4d	-0.41233292
58	0xbe8d0948	-0.27546144
59	0xbe205860	-0.15658712
60	0xbee17064	-0.4403106
61	0xbe30ade2	-0.17253831
62	0xbecbcf4a	-0.39806587
63	0xbedbb9eb	-0.42915282
64	0xbe0aa987	-0.13541232
65	0x3eda17cc	0.4259628
66	0x3d6eab2e	0.05826872
67	0xbee29da1	-0.44260886
68	0x3df968e1	0.12178207
69	0x3e98684d	0.29767075
70	0xbeafc6ab	-0.3433126
71	0x3e895aae	0.26826996
72	0x3e613e82	0.21996501
73	0x3d5636af	0.052298244
74	0x3e2da845	0.16958721
75	0xbdf905ab	-0.12159284
76	0xbed4b260	-0.4154234
77	0xbd224edc	-0.039625987
78	0x3e96bcbd	0.2944087
79	0xbe05a2ab	-0.13050334
80	0xbd89b4b5	-0.0672392
81	0xbeb2ab66	-0.34896392
82	0xbeb11e18	-0.34593272
83	0xbd5c97c5	-0.053855676
84	0x3e2dd869	0.16977085
85	0x3ea87dd2	0.32908493
86	0xbd433756	-0.047660194
87	0x3e6a6cf4	0.22893125
88	0xbeca02c1	-0.39455226
89	0xbef663bb	-0.48122963
90	0xbea4eec7	-0.32213423
91	0x3ea96ce6	0.33090895
92	0xbe8d6028	-0.27612424
93	0xbe77a6d6	-0.24184737
94	0x3c0eb2fb	0.008709664
95	0xbe79e0e4	-0.24402195
96	0xbd9e0fba	-0.07717843
97	0xbecfa00a	-0.40551788
98	0xbe259337	-0.1616944
99	0x3f00c948	0.5030713
100	0xbef3ca34	-0.47615206
101	0xbda38568	-0.079844296
102	0x3e507a82	0.20359233
103	0xbe31dd16	-0.17369494
104	0x3e0ed8c3	0.13949876
105	0x3d94b8a2	0.072617784
106	0x3ef5be93	0.4799696
107	0x3f201bc4	0.62542367
108	0xbce49f19	-0.027907895
109	0xbe8c85db	-0.27445874
110	0xbdb9cb4c	-0.09071979
111	0x3ec43bee	0.38326973
112	0x3f04aea3	0.51828974
113	0x3d1557e1	0.03646076
114	0xbea2e4a5	-0.31815067
115	0x3dc886c5	0.0979133
116	0xbee71067	-0.45129701
117	0xbeaaad13	-0.3333517
118	0xbdfb6fb7	-0.12277167
119	0xbe9a655b	-0.30155453
120	0xbeb05140	-0.3443699
121	0x3e7755c8	0.24153817
122	0x3ee8eaad	0.45491543
123	0x3a2d0ad3	0.0006601039
124	0x3e8ac8c7	0.27106306
125	0x3f011c02	0.5043336
126	0xbeb3e131	-0.35132745
127	0x3db242ad	0.08704124
128	0xbe85ea6d	-0.26155415
129	0x3da3db10	0.08000767
130	0x3ca30e42	0.01990426
131	0xbddf2481	-0.108956344
132	0x3e26edac	0.16301602
133	0x3e5a5a60	0.21323538
134	0xbed0918b	-0.4073604
135	0xbd15b514	-0.036549643
136	0xbe07f761	-0.13277961
137	0xbed59c88	-0.41720986
138	0x3de265b4	0.110545546
139	0x3dad2623	0.084545396
140	0xbe673fce	-0.22582933
141	0x3e2fdeea	0.17174879
142	0xbe8a5fa6	-0.270261
143	0x3e42df20	0.19030428
144	0xbe21f2b3	-0.15815239
145	0x3e71cff4	0.23614484
146	0x3dbce145	0.09222654
147	0xbe4bb626	-0.19893703
148	0xbdbd8269	-0.092533894
149	0x3d274ce8	0.040844828
150	0x3e571e6e	0.21007702
151	0x3ea7943a	0.32730275
152	0xbc1012f6	-0.008793583
153	0x3e205858	0.156587
154	0x3ec50677	0.38481495
155	0x3e7cd0fa	0.24689093
156	0xbeb812ba	-0.35951787
157	0xbdc8c439	-0.098030515
158	0xbe825c1c	-0.254609
159	0xbe09da51	-0.13462187
160	0xbeb3ce1d	-0.3511819
161	0xbe740df4	-0.23833448
162	0x3e509386	0.20368776
163	0xbd5b017e	-0.05346822
164	0x3e906a3f	0.2820606
165	0xbe270232	-0.16309431
166	0x3d35f9a3	0.044427525
167	0x3e8e2985	0.27766052
168	0x3e6760bc	0.22595495
169	0x3f08e171	0.53468996
170	0x3eecd527	0.46256372
171	0xbe4eb49f	-0.20186089
172	0x3d51a567	0.05118313
173	0xbeb09cf3	-0.34494743
174	0x3ecd8c27	0.4014599
175	0xbe193243	-0.1496058
176	0xbda01de7	-0.078182034
177	0x3e80228a	0.2502635
178	0x3da1e845	0.0790563
179	0x3ec1ad53	0.37827548
180	0xbddd77c8	-0.10813862
181	0xbcd35041	-0.025795104
182	0x3e9fb9ea	0.3119653
183	0xbe81f81d	-0.25384608
184	0x3e8501e3	0.25978002
185	0x3c80c63b	0.015719524
186	0x3e755e23	0.23961692
187	0xbe154b5f	-0.14579533
188	0xbead2df8	-0.33824134
189	0xbc06e11e	-0.008232383
190	0xba88a1f4	-0.0010424242
191	0xbc8ae8ab	-0.016956648
192	0x3e73a0bd	0.23791786
193	0x3e017324	0.12641579
194	0x3e7e8a04	0.24857336
195	0x3ec62de3	0.38706884
196	0xbeda6d66	-0.4266159
197	0x3e514a77	0.20438562
198	0xbe9ff280	-0.312397
199	0x3ee92672	0.45537144
200	0x3eaad41c	0.33364952
201	0x3e034b69	0.12821735
202	0x3e9f2b9c	0.3108796
203	0xbdd5bb36	-0.10436098
204	0xbe8a8f0a	-0.27062255
205	0x3ddeef4a	0.108854845
206	0x3e3ae44d	0.18251152
207	0x3d9824b6	0.07428877
208	0xbe7d494e	-0.24734995
209	0xbdabe9cd	-0.08394203
210	0xbc077196	-0.008266827
211	0xbe2472d3	-0.16059427
212	0xbea06e06	-0.3133394
213	0xbebe0228	-0.3711102
214	0xbc90f299	-0.017693805
215	0xbea174da	-0.31534463
216	0x3db5c5da	0.08875628
217	0xbc372822	-0.011179002
218	0x3c580a93	0.013186115
219	0xbd164d79	-0.036694977
220	0x3e9d7706	0.3075487
221	0x3d8cb7a7	0.068709664
222	0x3e2f56c2	0.17122939
223	0x3e9ac506	0.30228442
224	0x3e795d90	0.24352098
225	0xbe19cd6c	-0.15019768
226	0x3eaaeabb	0.3338221
227	0xbe9b79eb	-0.30366454
228	0xbd27b394	-0.040942743
229	0x3e8c19d6	0.2736346
230	0x3e86204e	0.26196522
231	0x3e7f1b7c	0.24912828
232	0x3e14634d	0.14491005
233	0xbe6bf4c6	-0.23042592
234	0xbe74c9ec	-0.23905152
235	0x3ccda00f	0.025100736
236	0x3e6a5ae7	0.22886239
237	0x3da8fc0d	0.082512
238	0x3e1c08ae	0.15237686
239	0x3e761ad1	0.24033667
240	0x3ea7c0d7	0.32764313
241	0xbe345a44	-0.17612559
242	0xbe3e8ead	-0.18609114
243	0x3e8554a3	0.26041135
244	0x3dbb955f	0.0915935
245	0x3e881041	0.265749
246	0x3e86c8f6	0.26325196
247	0xbeaf9c51	-0.34298947
248	0x3e82931b	0.25502858
249	0x3a2584d6	0.00063140446
250	0xbdddf08a	-0.10836895
251	0x3e15f7bd	0.14645286
252	0xbe3ce8a6	-0.18448123
253	0xbe00c828	-0.12576354
254	0x3e8c7613	0.27433833
255	0x3e73606e	0.23767254

95 f4 [64]
0	0x3dace4c2	0.084420696
1	0x3f5b7a91	0.85733896
2	0x3eebefc5	0.46081367
3	0xbe93a461	-0.2883635
4	0x3e2d2bdb	0.16911261
5	0xbf191fcc	-0.59814143
6	0xbef5b842	-0.4799214
7	0xbf523dbc	-0.8212545
8	0x3f61dfe6	0.88232267
9	0xbf23137a	-0.63701594
10	0xbd9cc78d	-0.07655249
11	0xbf1ebd9c	-0.6200807
12	0x3e875804	0.26434338
13	0x3ef03dce	0.46922153
14	0x3dff8681	0.124768265
15	0x3f366c67	0.7125916
16	0xbf21a58b	-0.63143224
17	0xbefc9c08	-0.49337792
18	0x3d5e0c28	0.05421081
19	0x3d5fafde	0.05461108
20	0x3c302af8	0.010752432
21	0x3f6c9301	0.9241181
22	0xbebb99d0	-0.36640787
23	0x3d0d6dd0	0.034528553
24	0xbe95e63a	-0.2927721
25	0x3eebeaa0	0.46077442
26	0xbf377158	-0.71657324
27	0xbe168e95	-0.14702828
28	0x3d09a625	0.033605713
29	0xbda31428	-0.07962829
30	0xbf056b42	-0.5211679
31	0x3ed51b7d	0.41622534
32	0x3eb7cde6	0.35899276
33	0xbbc5979c	-0.006030036
34	0xbf8fc4eb	-1.123197
35	0xbd28cda2	-0.04121173
36	0x3b1d6d40	0.0024021417
37	0xbf7ade60	-0.9799557
38	0xbdeb5046	-0.1148992
39	0x3ccc469c	0.024936013
40	0xbe7d5612	-0.24739864
41	0x3f089e82	0.53366864
42	0xbf3219b7	-0.6957049
43	0x3d12e818	0.035865873
44	0x3cfef280	0.031121492
45	0x3ea233e5	0.31680217
46	0x3f1b5f9a	0.6069275
47	0x3f302837	0.68811363
48	0x3c2b5f7a	0.010459775
49	0x3de2ad1a	0.11068173
50	0x3f0290a5	0.5100196
51	0xbe019667	-0.1265503
52	0x3e975b37	0.2956178
53	0x3f0dba90	0.55362797
54	0xbf017692	-0.5057155
55	0xbfae30a0	-1.3608589
56	0xbbb7c1b0	-0.005607806
57	0x3f276ca5	0.65400153
58	0xbf15fda4	-0.5859015
59	0xbdc0ae04	-0.09408191
60	0x3e6b6ef1	0.2299154
61	0x3eb42a05	0.35188308
62	0xbea60700	-0.32427216
63	0xbf2f9e11	-0.68600565

97 f4 [64, 1, 3, 3]
0	0xbf30b541	-0.6902657
1	0x3e80fa02	0.2519074
2	0xbf309e7c	-0.6899183
3	0x3f1ec521	0.62019545
4	0xbebe2dc9	-0.37144306
5	0x3f462ef8	0.7741542
6	0xbf29c68f	-0.663186
7	0xbf3a5bac	-0.7279613
8	0x3d37de20	0.04488957
9	0xbf4973b5	-0.7869218
10	0x3e8f8933	0.28034362
11	0xbf846c22	-1.03455
12	0xbe7c31f2	-0.24628428
13	0x3ece5052	0.40295655
14	0xbf4c9a07	-0.7992253
15	0xbe89207c	-0.26782596
16	0x3f6713d9	0.9026466
17	0xbe208298	-0.15674818
18	0xbe976e16	-0.29576176
19	0xbfc1654a	-1.5109036
20	0xbfc8751c	-1.5660739
21	0xbfb48733	-1.410376
22	0xbf24cb82	-0.6437303
23	0x3f58bd94	0.84664273
24	0x3dba197a	0.090868905
25	0xbedf6519	-0.4363182
26	0xbc76148f	-0.01501955
27	0x3f4c3ba7	0.7977852
28	0x3f681dde	0.90670574
29	0xbf8b415f	-1.0879325
30	0xbf5c7a9f	-0.86124605
31	0xbf734d19	-0.95039517
32	0x3f3220ae	0.69581115
33	0x3f5badbf	0.8581199
34	0xbea459cb	-0.32099757
35	0x3f824727	1.0177964
36	0xbf8a5987	-1.0808572
37	0x3e7a5b27	0.24448834
38	0x4006e796	2.107885
39	0xbf024b0e	-0.50895774
40	0x3f6afd83	0.9179308
41	0xbf6296c9	-0.8851133
42	0xbfbab6b4	-1.4587007
43	0x3fd82a16	1.6887844
44	0xbf7414c9	-0.95344216
45	0xbe8de754	-0.27715552
46	0x3f0e356d	0.5555027
47	0x3f0601aa	0.5234629
48	0x3eb75d55	0.35813394
49	0xbe841eae	-0.25804657
50	0xbeac5eb6	-0.3366601
51	0x3e20670f	0.15664314
52	0x3f2af74d	0.667836
53	0x3ebcc90d	0.3687214
54	0x3f59c25a	0.8506218
55	0x3f46ae5e	0.77609813
56	0xbf2305a7	-0.636805
57	0x3f64ab8f	0.8932428
58	0xbf37f21d	-0.7185381
59	0xbfa6b450	-1.3023777
60	0x3f00e45d	0.50348455
61	0xbf9fa309	-1.2471629
62	0x3ea526b8	0.32256103
63	0xbcb84720	-0.022494853
64	0xbeb9515a	-0.3619488
65	0x3c172731	0.009225653
66	0xbe8b6314	-0.27224028
67	0x3f40f7dc	0.75378203
68	0xbede2413	-0.43386897
69	0xbebd6083	-0.36987695
70	0xbf4f74e1	-0.8103772
71	0xbe8e57c7	-0.27801344
72	0xc010f304	-2.2648325
73	0x3fad57db	1.3542436
74	0x3fcb4752	1.588114
75	0x4003a555	2.056966
76	0xc0044400	-2.0666504
77	0x3f3277ea	0.69714224
78	0xc00220fe	-2.0332637
79	0x3f94b5b4	1.1617951
80	0xbff6f3aa	-1.929311
81	0xbf2ef627	-0.6834435
82	0xbeefa5b2	-0.46806103
83	0x3f735208	0.95047045
84	0x3f8ba4c1	1.0909654
85	0xbf240355	-0.64067584
86	0x3f211588	0.6292348
87	0x3f6dd24a	0.92899
88	0x3f004de1	0.50118834
89	0xbf31d05f	-0.69458574
90	0xbf0ce600	-0.5503845
91	0x3efb3485	0.49063507
92	0x3f51d197	0.81960434
93	0x3fe4510b	1.7837232
94	0xbea0d3b7	-0.31411526
95	0xbe232014	-0.15930206
96	0xbf317d88	-0.6933217
97	0x3fb37ab6	1.4021823
98	0xc028f75b	-2.6400974
99	0x3f1434cd	0.5789307
100	0xbeeaefd4	-0.458861
101	0x3db8e7fb	0.09028622
102	0x3e8f223a	0.279558
103	0x3f3b2596	0.73104227
104	0xbdeeee8d	-0.11666594
105	0x3de42aa6	0.11140947
106	0x3e25fc1e	0.16209456
107	0x3f33e948	0.70277834
108	0xbf1ed8ce	-0.6204957
109	0xbc003358	-0.007824741
110	0xbf815d99	-1.0106689
111	0x3f52e78e	0.82384574
112	0xbf953a69	-1.165845
113	0xbe534475	-0.20631583
114	0x3c54b5b5	0.012982775
115	0xbf031d2a	-0.51216376
116	0x3f8025af	1.00115
117	0xbffb3592	-1.9625723
118	0x403fc225	2.9962246
119	0x3fcde09c	1.608417
120	0x3fa38efb	1.2778009
121	0x3fa4e1a7	1.2881364
122	0x3f371178	0.7151103
123	0xbed5e020	-0.41772556
124	0xc066425c	-3.5978003
125	0xc02fbbea	-2.7458444
126	0x402a08a3	2.6567771
127	0x3f7ed627	0.9954552
128	0x3fd0d5cc	1.6315246
129	0xbfe38c99	-1.7777282
130	0x3e1fd55b	0.15608732
131	0x3f28362e	0.6570767
132	0xc0408477	-3.008085
133	0xbf513a94	-0.8173001
134	0xbf0922a3	-0.53568476
135	0xbf136e41	-0.5759011
136	0x3e8d56dd	0.27605334
137	0xbf541b72	-0.8285438
138	0xbf8833d2	-1.0640814
139	0xbf5e4f7e	-0.86840045
140	0xbb6f4d97	-0.0036514753
141	0xbebf1b00	-0.37325287
142	0xbe1ba0cb	-0.15198056
143	0x3f2e1bf1	0.68011385
144	0x3e3d76af	0.18502305
145	0xbebf69e9	-0.3738549
146	0xbe567b17	-0.20945393
147	0xbeb197c9	-0.34686115
148	0xbee12582	-0.4397393
149	0xbefed7c0	-0.4977398
150	0x3d9d0ffb	0.07669064
151	0xbed10a42	-0.4082814
152	0x3e3d4593	0.18483572
153	0xbd9dc5d9	-0.07703752
154	0xbf11cd07	-0.5695347
155	0xbefde5b2	-0.49589306
156	0x3f1167b1	0.56798846
157	0xbdd1bebc	-0.10241458
158	0xbf1082a3	-0.56449336
159	0xbe825c3b	-0.2546099
160	0x3ecae2a6	0.39626044
161	0xbf0cece7	-0.55048984
162	0xbc83ac9d	-0.01607352
163	0x3f9df8a3	1.2341503
164	0x3bf2167a	0.0073879333
165	0xbecb8c52	-0.39755493
166	0x3f8e4313	1.111422
167	0xbf32707e	-0.697029
168	0xbdc6db0a	-0.09709747
169	0x3e8ee6a8	0.27910352
170	0xbd463fa7	-0.048400547
171	0x3ee02f8a	0.4378627
172	0x3f95c633	1.1701111
173	0xbe65968b	-0.22420709
174	0xbf0688e2	-0.52552617
175	0x3f182e61	0.5944577
176	0xbfde8fd6	-1.7387645
177	0xbe1fb7df	-0.15597485
178	0x3d557273	0.0521111
179	0xbf86df14	-1.0536828
180	0x3e2afe33	0.16698532
181	0x3f313bde	0.69231975
182	0x3f167784	0.58776116
183	0xbf86adb9	-1.0521766
184	0xbefdaaf4	-0.4954449
185	0x3ebe71a9	0.3719609
186	0xbf94c62d	-1.1622978
187	0x3e8253fa	0.25454694
188	0x3f5e25fa	0.867767
189	0xbf45f26d	-0.7732304
190	0xbf95c35a	-1.1700242
191	0x3c9e331d	0.019311482
192	0xbf9cb4ca	-1.2242672
193	0x3f761d24	0.96138215
194	0xbf864f0c	-1.0492873
195	0x3ea6e938	0.32599807
196	0x3f842d45	1.0326315
197	0xbefec0b3	-0.49756393
198	0x3ea0430b	0.3130115
199	0xbe86dfd0	-0.2634263
200	0xbf052c28	-0.520205
201	0xbf00be72	-0.50290596
202	0xbec80a9f	-0.39070603
203	0xbda006c5	-0.07813791
204	0xbeb1d913	-0.34735927
205	0xbe025e1f	-0.12731217
206	0xbeb41830	-0.35174704
207	0x3f8704b3	1.0548309
208	0xbf8e7d98	-1.1132078
209	0xbf5403d1	-0.82818323
210	0x3f8c0bf1	1.0941144
211	0xbf398f4b	-0.7248427
212	0x3f6bb897	0.92078537
213	0x3efd00ee	0.49414772
214	0xbfc73be6	-1.5565155
215	0xbd4999ab	-0.049218815
216	0x3ee210d3	0.4415346
217	0xbec964c0	-0.3933468
218	0xbd0feee2	-0.035139926
219	0xbe0b592c	-0.13608235
220	0x3f282b20	0.65690804
221	0x3ee0d20c	0.43910253
222	0x3e92e9bf	0.2869396
223	0x3ea7c1a9	0.32764938
224	0x3ef0a5c5	0.47001472
225	0x3ea84e0c	0.32872045
226	0xbf806688	-1.003129
227	0xbfbd6029	-1.4794971
228	0x3f11636b	0.56792325
229	0xbfe6630f	-1.799898
230	0x3f8737d4	1.0563912
231	0x3fd5e30e	1.6709917
232	0xbf858919	-1.0432464
233	0x3f7edb6e	0.99553573
234	0xbf54def5	-0.83152705
235	0xbe37f15f	-0.1796317
236	0xbdb5350c	-0.088480085
237	0x3f0990a7	0.53736347
238	0x3ee71425	0.45132557
239	0xbdbd4d2a	-0.092432335
240	0x3dee7704	0.11643794
241	0xbf746a10	-0.9547434
242	0xbe71b355	-0.23603566
243	0x3e662732	0.2247589
244	0x3e3c16a3	0.1836801
245	0xbddca221	-0.10773111
246	0xbf33f9b2	-0.7030288
247	0xbf824af7	-1.0179127
248	0x3ebf9ef6	0.37425965
249	0x3cb0226b	0.021500787
250	0x3f12e681	0.5738297
251	0xbf8e7506	-1.1129463
252	0xbeffa51a	-0.4993065
253	0x3ed8b0c2	0.42322356
254	0xbf1dd2fe	-0.61650074
255	0xbf385e90	-0.7201929

98 f4 [64]
0	0x3ecc9e7a	0.39964658
1	0x3ede3884	0.43402493
2	0x3fb347a1	1.4006234
3	0xbde63dbf	-0.11242246
4	0xbdab1b82	-0.08354856
5	0xbf2f833a	-0.6855961
6	0x3e668499	0.2251152
7	0x3f0a5f7f	0.54051965
8	0x3eca32cf	0.3949189
9	0xbf1d12cf	-0.61356825
10	0xbe4ce3f9	-0.2000884
11	0xbf07d503	-0.53059405
12	0x3f1b059b	0.6055543
13	0x3e0a563b	0.13509457
14	0x3da3cbef	0.079978816
15	0x3f7c30ee	0.9851216
16	0x3f4595e2	0.7718183
17	0x3f197823	0.5994894
18	0xbeb877ca	-0.36028892
19	0x3ed2c388	0.41164804
20	0x3a863250	0.0010238383
21	0x3f494b75	0.78630763
22	0x3f42a294	0.76029325
23	0x3e9410cd	0.28919068
24	0xbec78cd3	-0.38974628
25	0x3eaf1a31	0.3419967
26	0x3e80e5f1	0.2517543
27	0x3f0d60d6	0.55225885
28	0x3f5f9aa8	0.8734536
29	0xbe7bac50	-0.24577451
30	0xbe5e2a7d	-0.21695895
31	0xbf0294b6	-0.51008165
32	0xbf38a236	-0.72122514
33	0xbf013e45	-0.5048564
34	0xbed63e7c	-0.41844547
35	0xbead7990	-0.33881807
36	0x3e4b3dd6	0.19847807
37	0x3ef7590a	0.4831012
38	0xbef5533e	-0.4791507
39	0x3dd6d104	0.10489085
40	0x3e453bfe	0.19261166
41	0x3f26e250	0.65189075
42	0xbd1a13a7	-0.0376164
43	0xbec727d3	-0.3889757
44	0xbf2301cf	-0.63674635
45	0x3eed694f	0.46369407
46	0xbf7ea279	-0.99466664
47	0xbe53d6e4	-0.20687443
48	0xbb66cdb0	-0.0035217814
49	0xbe9a84c6	-0.30179423
50	0x3f402935	0.75062877
51	0xbf0233b8	-0.50860167
52	0xbeb87617	-0.36027595
53	0x3f9aa043	1.2080158
54	0xbe3ea7f9	-0.18618764
55	0xbe9c4a68	-0.30525517
56	0xbebdbe28	-0.3705914
57	0xbec618b1	-0.38690713
58	0xbcd09814	-0.025463142
59	0x3f29e193	0.66359824
60	0xbf194aea	-0.59879935
61	0x3e1b572a	0.15169969
62	0x3f90fdc9	1.1327449
63	0xbcd687e4	-0.026187845

100 f4 [128, 64, 1, 1]
0	0xbb9ffd6e	-0.004882506
1	0x3e589657	0.211511
2	0xbe29cd3f	-0.16582201
3	0xbe8e808b	-0.27832446
4	0xbdde8813	-0.10865798
5	0x3d8c4be4	0.068504125
6	0x3dc4f07c	0.09616181
7	0xbe132f10	-0.14373422
8	0xbd12174d	-0.035666753
9	0xbe097cec	-0.1342656
10	0xbe43cf73	-0.19122104
11	0xbe0ac0c2	-0.13550094
12	0xbd44e8fa	-0.048073746
13	0xbe80458c	-0.2505306
14	0xbe839167	-0.2569687
15	0x3d8d877b	0.069106065
16	0x3e2373c6	0.15962133
17	0x3d927d5f	0.07152819
18	0xbd8b64e9	-0.068063565
19	0x3e14664d	0.1449215
20	0xbe7fafde	-0.24969432
21	0x3dcb87f0	0.099380374
22	0x3d994030	0.07482946
23	0xbe02e78c	-0.1278364
24	0xbd0b559f	-0.0340172
25	0xbcb1ba9d	-0.02169543
26	0x3d3051c3	0.043046724
27	0x38bd9e89	9.041752e-05
28	0x3d7eb0b7	0.062180247
29	0xbd942401	-0.0723343
30	0xbceb20c3	-0.028702145
31	0xbd9ded71	-0.07711304
32	0xbe2ab56a	-0.16670766
33	0xbd9d8879	-0.07692046
34	0x3e8347d7	0.25640747
35	0x3cf3752c	0.029718958
36	0xbe02cd05	-0.12773521
37	0x3e7049d1	0.23465659
38	0xbd6d7410	-0.057972014
39	0x3cdb2e1d	0.026755387
40	0xbc7b57a4	-0.015340719
41	0x3e4ab306	0.19794855
42	0x3e0e148f	0.1387503
43	0x3e0df75c	0.13863891
44	0x3c6ca069	0.014442542
45	0x3ddff51c	0.10935423
46	0x3c870f59	0.01648681
47	0x3dfd6cdf	0.12374281
48	0xbe7c1475	-0.24617179
49	0x3e45f7e8	0.1933285
50	0x3e4ba5fd	0.19887538
51	0xbd347d56	-0.044064842
52	0x3dda55f1	0.10660923
53	0xbe22b352	-0.15888718
54	0xbd2f32de	-0.04277312
55	0xbc798d53	-0.015231448
56	0x3d95e790	0.07319558
57	0x3c32dece	0.010917379
58	0xbe2f8bcc	-0.17143172
59	0xbe330e45	-0.17485912
60	0xbe3ef2b9	-0.18647279
61	0xbe7cd943	-0.24692254
62	0x3e522be8	0.20524561
63	0xbe41ff84	-0.18945128
64	0xbe8be1d5	-0.27320734
65	0xbe227596	-0.15865168
66	0xbe063871	-0.13107468
67	0x3ecaad7f	0.39585492
68	0xbe25c35a	-0.16187802
69	0x3eb5c201	0.35499576
70	0xbe331c6d	-0.17491312
71	0x3da9d7d1	0.08293117
72	0xbc714f1a	-0.014728332
73	0x3dce9e74	0.10088816
74	0xbccfdf6e	-0.025375094
75	0x3c04c7f9	0.008104318
76	0xbe15deb0	-0.1463573
77	0x3e12d246	0.14338025
78	0x3e95c523	0.29251966
79	0x3bdc0454	0.006714383
80	0xbd841e8d	-0.064511396
81	0xbe3b0603	-0.18264012
82	0xbe8b718c	-0.27235067
83	0x3d1b4f92	0.03791768
84	0xbdc19dd4	-0.094539315
85	0xbe7f7ad9	-0.24949206
86	0xbe520d8f	-0.20512985
87	0x3e254257	0.16138588
88	0xbe06e9d6	-0.13175139
89	0x3e7a2210	0.24427056
90	0xbe881f93	-0.2658659
91	0xbe96e37d	-0.29470435
92	0xbe3533e1	-0.17695571
93	0xbe70184c	-0.23446769
94	0x3eb6c94d	0.35700455
95	0xbe82318d	-0.2542843
96	0x3d9a972b	0.07548364
97	0xbe253c27	-0.16136228
98	0xbdbe8bc3	-0.09304001
99	0xbe5c8b45	-0.21537502
100	0x3d911230	0.07083547
101	0x3d17ec7f	0.037090775
102	0x3e2ecf9e	0.17071387
103	0x3d0b808d	0.034058142
104	0xbd282959	-0.041055057
105	0x3e813d13	0.25241908
106	0x3eb3aa48	0.35090852
107	0x3e0fe151	0.14050795
108	0x3e89d86e	0.26922935
109	0x3e682bdf	0.22672985
110	0xbe83ceb3	-0.25743636
111	0xbe1f12af	-0.15534471
112	0x3e440c14	0.19145232
113	0xbe114532	-0.14186552
114	0x3c15f6f3	0.009153116
115	0xbcebb4a5	-0.028772661
116	0x3d8a4044	0.06750539
117	0xbd731833	-0.05934925
118	0x3de72823	0.11286952
119	0x3e624fe6	0.22100791
120	0xbdce37d8	-0.10069245
121	0x3e0b0e87	0.1357976
122	0x3e97aa79	0.29622248
123	0xbb04750f	-0.0020211374
124	0xbe2e3ddd	-0.17015786
125	0x3d98509c	0.0743725
126	0x3e05dd88	0.13072789
127	0xbc40db0e	-0.011770977
128	0x3d56102a	0.05226151
129	0x3ceb2948	0.028706208
130	0x3def7ca0	0.11693692
131	0xbdce1d33	-0.10064163
132	0x3dbf2e1a	0.09334965
133	0xbd8b4f61	-0.0680225
134	0x3de41d10	0.11138356
135	0x3dbea694	0.09309116
136	0x3d94bf8a	0.07263096
137	0xbc95b596	-0.018275063
138	0x3cd8b4b9	0.026453363
139	0xbe125a38	-0.14292228
140	0xbbdbc650	-0.0067069903
141	0xbc70c04b	-0.014694284
142	0xbd91d26c	-0.07120213
143	0xbd1cc8f3	-0.038277578
144	0x3de85adc	0.11345455
145	0x3db3646c	0.08759388
146	0xbdc2569d	-0.094891764
147	0x3d429ba4	0.04751171
148	0x3d2cad87	0.042157676
149	0xbc3569aa	-0.011072556
150	0xbd8ca6cb	-0.06867751
151	0xbdaebb64	-0.08531836
152	0xbd9f4b98	-0.0777809
153	0xbdea84bd	-0.11451099
154	0xbd7b4cfa	-0.061352707
155	0xbd834885	-0.064103164
156	0x3a4a14ee	0.0007708807
157	0xbdddd930	-0.10832441
158	0x3dbedd64	0.09319571
159	0x3d5fc14c	0.0546277
160	0x3dcb6861	0.09932018
161	0xbd940b5b	-0.072287284
162	0xbe041835	-0.12899859
163	0xbe29c1a3	-0.16577773
164	0x3da3230f	0.07965671
165	0xbdca167f	-0.09867572
166	0x3cb574df	0.022150455
167	0xbdcaf661	-0.09910274
168	0x3e1f9723	0.15584998
169	0x3ce88ecb	0.028388401
170	0xbdb519ea	-0.08842833
171	0x3d6808ad	0.0566489
172	0xbd4170ec	-0.04722683
173	0xbdad3892	-0.084580556
174	0x3e1d1663	0.15340571
175	0x3d8644ac	0.06556067
176	0xbde00b6d	-0.10939679
177	0xbd95edb3	-0.07320728
178	0xbd4d4de5	-0.050123114
179	0xbd95b75b	-0.07310363
180	0x3d6611d8	0.05616936
181	0xbd90f094	-0.07077137
182	0xbe152e8f	-0.14568542
183	0xbdeb6b22	-0.11495043
184	0xbdaebf51	-0.085325845
185	0x3ce7acf0	0.028280705
186	0xbd9def1f	-0.07711624
187	0xbde68b06	-0.11256985
188	0xbe14904c	-0.1450817
189	0x3e02daed	0.12778826
190	0x3dce25a4	0.10065773
191	0xbd0eafee	-0.03483575
192	0xbe032528	-0.12807143
193	0xbdc0e04f	-0.094177835
194	0x3e51d27b	0.20490448
195	0x3ca00a86	0.019536268
196	0x3c09b82a	0.008405725
197	0xb9ff781c	-0.0004872688
198	0xbd87e050	-0.06634581
199	0x3e6bf4c7	0.23042594
200	0x3e46ba67	0.19407044
201	0xbd1f173e	-0.038840525
202	0xbd105daa	-0.035245575
203	0xbc7ba01d	-0.015357998
204	0xbde0b01e	-0.10971092
205	0xbc482a50	-0.012217119
206	0x3e1b96e2	0.15194276
207	0xbe6f4c69	-0.23368992
208	0x3dd21dbf	0.1025958
209	0x3e92d6a9	0.28679398
210	0xbe872c02	-0.26400763
211	0xbef08d85	-0.4698297
212	0x3c1429a3	0.00904313
213	0xbe118063	-0.14209132
214	0xbd8b4260	-0.067997694
215	0x3e21bf5e	0.15795657
216	0xbdd68754	-0.104750305
217	0xbdf0b715	-0.1175367
218	0xbd04ab9e	-0.03239023
219	0xbd6dd826	-0.058067463
220	0x3e0538fe	0.13010022
221	0xbe3d0864	-0.18460232
222	0xbe674ab3	-0.22587089
223	0xbdba7ac0	-0.09105444
224	0xbe33dfab	-0.17565791
225	0xbe89fab3	-0.2694908
226	0x3d8a61e8	0.067569554
227	0x3d96124c	0.073277086
228	0xbe310990	-0.17288804
229	0x3e4b0d4b	0.1982929
230	0xbcf04839	-0.029331313
231	0x3ea71dce	0.32639927
232	0xbe634542	-0.22194389
233	0xbd2e7c37	-0.04259893
234	0x3db5f2d8	0.088842094
235	0x3e709108	0.23492825
236	0x3dbfa40e	0.09357463
237	0x3e06ca54	0.1316312
238	0x3e766dc1	0.24065305
239	0x3c8a76c6	0.016902339
240	0xbd81b487	-0.06333261
241	0xbe2c042b	-0.16798465
242	0x3e1d6005	0.1536866
243	0xbd844477	-0.06458371
244	0xbe152016	-0.14563021
245	0x3dbbc26a	0.09167941
246	0x3eede349	0.46462467
247	0x3c0a2f3c	0.008434113
248	0x3e8f7f20	0.28026676
249	0x3e589577	0.21150766
250	0xbdde8927	-0.108660035
251	0xbe95b27b	-0.29237732
252	0xbcf5c446	-0.030000817
253	0x3b722916	0.0036950759
254	0xbe71f2bf	-0.23627757
255	0x3d0214de	0.03175818

101 f4 [128]
0	0x3e9e8c1e	0.30966276
1	0xbc85456b	-0.016268453
2	0x3eb78b3d	0.35848418
3	0x3df6be40	0.12048006
4	0x3df39b24	0.11894825
5	0x3f4dc2f5	0.80375606
6	0xbf339bc5	-0.7015956
7	0xbea735cb	-0.32658228
8	0x3e081f39	0.1329316
9	0xbefe1d23	-0.49631605
10	0xbd72394a	-0.059136666
11	0xbe8cce60	-0.27501202
12	0x3efcbbfd	0.49362174
13	0x3dfa4a48	0.12221199
14	0xbee937ab	-0.45550284
15	0xbeceffaa	-0.4042943
16	0x3d3cda89	0.04610685
17	0x3e9781c1	0.29591182
18	0x3f34aa73	0.70572585
19	0xbe81a109	-0.25318173
20	0xbe2df63a	-0.16988459
21	0x3d31866c	0.043341085
22	0x3e968c69	0.29404
23	0x3dcb59d6	0.09929244
24	0x3eef4bc0	0.4673748
25	0xbf2611be	-0.6487082
26	0x3f17e214	0.5932934
27	0xbdf5e581	-0.12006665
28	0xbd9a2a06	-0.075275466
29	0xbe5ee141	-0.21765615
30	0x3d44fbde	0.04809176
31	0xbe43247f	-0.19056891
32	0xbe803c57	-0.25046036
33	0xbed7498d	-0.42048302
34	0x3f22a0a3	0.6352636
35	0x3ee9f4b6	0.45694512
36	0xbebfa3a4	-0.37429535
37	0xbeb38824	-0.35064805
38	0x3d4310e2	0.047623523
39	0x3eb1ed7a	0.34751493
40	0x3da565dd	0.080760695
41	0xbe0c1c81	-0.13682748
42	0x3df4c268	0.119511425
43	0xbf33cf22	-0.70237935
44	0x3e6f6dff	0.23381804
45	0xbdbe1860	-0.09281993
46	0xbe06c426	-0.13160762
47	0x3e56700d	0.20941181
48	0xbe975ced	-0.29563084
49	0x3f1a5301	0.60282904
50	0xbe3190ec	-0.1734044
51	0x3ea12962	0.31476885
52	0x3f69311c	0.9109056
53	0x3edb3b22	0.42818552
54	0xbace9858	-0.0015761955
55	0xbd3051b6	-0.043046676
56	0x3fa70e0c	1.3051162
57	0xbdb3e83d	-0.0878453
58	0x3eee649f	0.46561143
59	0xbe428692	-0.18996647
60	0xbdfc5fb0	-0.123229384
61	0xbebace12	-0.36485344
62	0x3e24c93d	0.16092391
63	0x3db2f91a	0.087389186
64	0x3cd954d4	0.026529707
65	0xbf108432	-0.56451714
66	0xbeb9002e	-0.3613295
67	0x3e067e8b	0.1313421
68	0xbf3f6854	-0.7476857
69	0xbe85d446	-0.26138514
70	0x3eebea8a	0.46077377
71	0xbe9a45ea	-0.30131465
72	0xbe2af177	-0.16693674
73	0xbf471afe	-0.7777556
74	0x3e2abcb0	0.16673541
75	0xbe8b1b46	-0.27169245
76	0xbd4dea9c	-0.05027257
77	0xbdab5d29	-0.08367378
78	0x3e42a07d	0.19006534
79	0x3eacbf4e	0.33739704
80	0x3ef295e6	0.47379988
81	0xbee6c6d4	-0.4507357
82	0x3d47b323	0.048754822
83	0x3ec7ee43	0.39048967
84	0x3e50bb4b	0.20383947
85	0xbe3bd4f8	-0.1834296
86	0x3f9578e3	1.1677517
87	0x3ed02b98	0.4065826
88	0xbf2a74aa	-0.66584265
89	0xbea568a5	-0.323064
90	0xbeb669df	-0.35627648
91	0x3f7f76dd	0.99790746
92	0xbe20e1c2	-0.1571112
93	0x3edaea42	0.4275685
94	0x3e329b56	0.17442068
95	0xbf22e110	-0.6362467
96	0x3f25b4b9	0.64728886
97	0xbf4dd8a3	-0.80408686
98	0xbdb62f5d	-0.088957526
99	0x3e9c8193	0.30567607
100	0x3d82c2e6	0.0638483
101	0xbeea6ce5	-0.45786205
102	0x3edf4634	0.43608248
103	0x3eb083df	0.3447561
104	0xbd8302b1	-0.06396998
105	0x3e818c32	0.25302273
106	0xbe1b184f	-0.15145992
107	0xbb07b800	-0.0020709038
108	0xbe2e206d	-0.17004557
109	0x3ed41a64	0.41426384
110	0xbeb6ea7b	-0.3572577
111	0x3ef5935b	0.47963986
112	0xbf576336	-0.8413576
113	0x3f754ff2	0.9582511
114	0x3ea5966b	0.32341322
115	0x3e1a85ce	0.15090105
116	0xbe897341	-0.26845744
117	0xbe3da708	-0.18520749
118	0xbe312361	-0.17298652
119	0x3ebf0113	0.37305507
120	0x3dbf4c72	0.09340753
121	0xbe2d05c2	-0.16896728
122	0xbe31ffdd	-0.1738276
123	0xbe839efe	-0.2570724
124	0xbceb412d	-0.028717602
125	0x3efd0d0d	0.4942402
126	0x3d9c25e7	0.07624417
127	0xbf3c6b08	-0.73600817
