models/eye_landmark_detector/model_best.pth.onnx (onnx, 749714 bytes, 20 tensors)

conv_out.weight f4 [12, 512, 1, 1]
0	0xbca8be0f	-0.02059844
1	0x3cee83d4	0.029115595
2	0x3cdda88b	0.027057907
3	0x3c9e8f90	0.019355565
4	0x3d2bd6c2	0.041952856
5	0x3c83fcb4	0.01611171
6	0x3c6c428a	0.014420161
7	0x3d194901	0.037423138
8	0x3d1bd2f1	0.038042966
9	0xbd036261	-0.032076243
10	0x3ccf9268	0.025338367
11	0x3c319a69	0.010840037
12	0x3cd60e7c	0.026129954
13	0x3ccd8bb5	0.025091032
14	0xbd1e06a9	-0.03858057
15	0x3b775c4c	0.0037744222
16	0xbc8f3c57	-0.017484827
17	0xbc0575a2	-0.008145722
18	0x3c63cb08	0.013903387
19	0xbc149cdd	-0.009070602
20	0xbce6f9af	-0.02819523
21	0x3b8777eb	0.0041341684
22	0x3c98ed3a	0.018667806
23	0xbc8a5057	-0.016884012
24	0x3bd6a6cd	0.006550646
25	0x3bb59e4a	0.005542551
26	0xbcf4cafa	-0.029881943
27	0xbcb74717	-0.022372765
28	0xbccb1bbc	-0.024793498
29	0xbc93dd51	-0.018049868
30	0x3baf6ff8	0.005353924
31	0x3d05dadf	0.032679435
32	0x3d29953c	0.041402087
33	0x3c97fd60	0.018553436
34	0x3c928dc5	0.017889867
35	0xbca7ac83	-0.020468002
36	0xbccaf579	-0.024775254
37	0xbcae72a7	-0.021294905
38	0xbc2b019c	-0.010437395
39	0xbd08bcea	-0.033383287
40	0x3c0fee9e	0.008784918
41	0x3cd23ba7	0.02566321
42	0x3c9e7d63	0.019346898
43	0x3cc6239d	0.024186904
44	0x3cf1bd2b	0.029509148
45	0xbc384839	-0.011247688
46	0x3d037b74	0.032100156
47	0x3d29d059	0.04145846
48	0x3ce2fa97	0.027707381
49	0x3d2e97f9	0.0426254
50	0x3c897cb2	0.016783092
51	0xbca52350	-0.02015844
52	0x3cd11892	0.025524411
53	0x3c91cd4b	0.017798087
54	0xbcde0594	-0.02710227
55	0xbb7a935a	-0.00382348
56	0xbcfa95a3	-0.03058893
57	0x3c7e9e29	0.015540638
58	0x3bed6de1	0.0072457646
59	0x3d3cfb7f	0.046138283
60	0x3cc7fd72	0.024412844
61	0xbd16d169	-0.036820803
62	0x3c29a4ba	0.010354215
63	0x3b1f514e	0.0024309936
64	0x3c9aa495	0.018877307
65	0xbc8f6c8a	-0.01750781
66	0x3d12a457	0.035801258
67	0xbd31132f	-0.043231186
68	0xbcd55903	-0.02604342
69	0xbcdb1388	-0.026742712
70	0x39fe522a	0.00048507872
71	0x3c371fa1	0.0111769745
72	0xbd2ba1b7	-0.04190227
73	0x3c1f74eb	0.009732465
74	0xbce1bbf4	-0.027555443
75	0xbc61d426	-0.01378349
76	0xbd0fbc82	-0.035091884
77	0x3cf19a95	0.029492656
78	0x3cd1bc8f	0.025602607
79	0xbc824497	-0.015901847
80	0xbc07f201	-0.008297444
81	0xbcd9806c	-0.026550494
82	0xbcd10ad2	-0.025517855
83	0xbbdce027	-0.006740588
84	0x3c58aca1	0.013224752
85	0x3d24ab6f	0.040202554
86	0xbcc077b0	-0.023494571
87	0x3d0cd7fe	0.034385674
88	0x3d33fecf	0.043944176
89	0xbcddf473	-0.027094102
90	0xbce2d939	-0.02769147
91	0x3d267f77	0.040648904
92	0x3cd1479e	0.025546845
93	0xbcb9ecde	-0.022695955
94	0xbc413f55	-0.011794885
95	0x3d027e4e	0.031858735
96	0xbaad3b17	-0.0013216463
97	0xbcc5415b	-0.024079015
98	0x3c611dfb	0.013740058
99	0xbc3cc9f8	-0.0115227625
100	0x3c4b4a78	0.012407891
101	0xbd01c8c1	-0.031685594
102	0x3c1d4f32	0.009601401
103	0x3d13e15e	0.0361036
104	0xbcc8bccb	-0.024504086
105	0xbbeca1bd	-0.007221429
106	0xbcb1197f	-0.021618603
107	0xbc9f2731	-0.019427868
108	0x3d3dda57	0.046350803
109	0xbccf0bfa	-0.025274266
110	0x3cff03f2	0.031129811
111	0xbc842e1f	-0.016135274
112	0x3cac7ce1	0.02105564
113	0x3bbbd5ac	0.005732259
114	0xbbe425f1	-0.006962531
115	0x3c81500e	0.015785243
116	0xbcf7c0cb	-0.030243298
117	0xbc516591	-0.012780563
118	0x3c3c1112	0.011478679
119	0xbae072a7	-0.0017124013
120	0x3b7b4a41	0.003834382
121	0x3bfa7813	0.0076437085
122	0xbd2e6afd	-0.0425825
123	0x3ca52329	0.020158367
124	0xbce064f0	-0.02739188
125	0x3ca5d96c	0.020245276
126	0xbc23234d	-0.009957147
127	0x3bec23f5	0.007206435
128	0x3c1dfa84	0.009642247
129	0x3c971ef0	0.01844737
130	0xbca90b80	-0.020635366
131	0xbcec0e2f	-0.028815357
132	0x3c3e9815	0.011632939
133	0x3c9d9b5d	0.019239122
134	0x3d1582da	0.036501743
135	0x3c9adfaa	0.01890548
136	0xbcb01197	-0.021492762
137	0x3d21c7ec	0.0394973
138	0x3d02e1ff	0.031953808
139	0x3c0b0404	0.008484844
140	0x3cd1649b	0.025560668
141	0x3bbc33a6	0.0057434617
142	0x3ce89cfc	0.028395168
143	0x3ce8cca8	0.0284179
144	0x3ccb9171	0.024849625
145	0x3d1af6d1	0.03783304
146	0x3d2daf07	0.042403247
147	0xbcd4db44	-0.02598346
148	0x3cefdd17	0.029280229
149	0x3c640b4e	0.013918711
150	0xbc5fac50	-0.013651922
151	0xbd1354f5	-0.035969693
152	0x3c8d6007	0.017257703
153	0xbcb11191	-0.021614822
154	0x3c10c3b9	0.008835726
155	0x3c2edb8f	0.010672464
156	0x3ce61f8f	0.02809122
157	0xbd0531c1	-0.032518152
158	0x3cea7cc3	0.028623944
159	0x3d24624a	0.0401328
160	0xbc93e594	-0.018053807
161	0x3c90a152	0.017655049
162	0xbc9f343d	-0.019434089
163	0x3b0346ad	0.002003114
164	0x3d1a48bb	0.037667017
165	0xbc613f53	-0.013748008
166	0xbb82f6b9	-0.003996697
167	0xbd0407ec	-0.032234117
168	0x3d1a028e	0.037600093
169	0xbc7ade6b	-0.015311818
170	0x3a34c85f	0.00068963127
171	0x3c634135	0.013870527
172	0x3d087421	0.033313874
173	0xbca00f36	-0.019538503
174	0xbc8a2535	-0.016863445
175	0xbb09271b	-0.002092785
176	0xbd1250ca	-0.035721578
177	0xbccd2951	-0.025044115
178	0x3c5dd1f4	0.013538826
179	0xbcd13761	-0.025539102
180	0x3d0a3808	0.03374484
181	0x3c26ef6c	0.010188919
182	0x3c1c7728	0.009549893
183	0x3cbbd830	0.022930235
184	0x3c6682b2	0.014069246
185	0x3c1659b0	0.009176657
186	0x3d26484e	0.0405963
187	0xbbba9b8d	-0.0056948126
188	0x3bdf01fa	0.0068056555
189	0xbcd9f376	-0.026605349
190	0x3d2ffe4b	0.042967122
191	0x3ce1f98d	0.027584815
192	0xbca8ddd2	-0.020613585
193	0xbc9bc432	-0.019014452
194	0x3c8c7b96	0.017148774
195	0xbcc24387	-0.02371384
196	0x3cfbe39e	0.030748185
197	0xbcb077d3	-0.021541512
198	0xbcdc9f15	-0.026931325
199	0xbd07d836	-0.03316518
200	0x3b86921b	0.0041067726
201	0xbc793921	-0.0152113745
202	0xbcf42240	-0.029801488
203	0xbca60251	-0.020264776
204	0xbc89a81c	-0.016803794
205	0x3ca26df0	0.019827813
206	0x3ce22f6b	0.027610501
207	0xbc9b4839	-0.018955337
208	0x3d19c635	0.03754254
209	0xbcc5c04a	-0.024139542
210	0xbcb5d001	-0.02219391
211	0xbcce847f	-0.025209663
212	0x3d414e15	0.047193605
213	0xbcb2e927	-0.021839691
214	0x3d339dac	0.04385154
215	0x3b22d7eb	0.0024847935
216	0x3b55a93a	0.0032602088
217	0xbc609753	-0.0137079535
218	0xbcf58b65	-0.029973695
219	0xbbb09e9b	-0.005390001
220	0xbcb885a5	-0.022524664
221	0x3c870a0d	0.016484285
222	0x3c9694fd	0.01838159
223	0xbca97a23	-0.020688122
224	0x3c48cf77	0.012256495
225	0x3c55d725	0.013051783
226	0x3be6dc48	0.0070453025
227	0x3c8a3c56	0.016874474
228	0x3c699962	0.014257761
229	0xbcfb1988	-0.030651823
230	0x3b0b8d86	0.0021294071
231	0xbc25ef78	-0.010127895
232	0xbd086968	-0.03330365
233	0x3c9842d9	0.018586563
234	0xbbb775be	-0.0055987528
235	0x3c317706	0.0108316
236	0x3d34a5fc	0.044103608
237	0x3c1ddb6a	0.009634832
238	0xbbfab5dd	-0.0076510743
239	0xbbc4d529	-0.006006856
240	0xbcf976be	-0.030452128
241	0x3b5d1330	0.003373336
242	0x3d253977	0.040338006
243	0xbcf6ad30	-0.03011188
244	0x3d281d03	0.041043293
245	0x3c0653d2	0.008198695
246	0xbd1245d9	-0.035711143
247	0xbcc4b2e4	-0.024011083
248	0x3c828a7d	0.015935177
249	0x3d380a8a	0.044931926
250	0xbd2c0185	-0.041993637
251	0x3c904123	0.017609185
252	0xbbf519cb	-0.0074798814
253	0x3cd359c7	0.025799645
254	0x3ce3bcee	0.02780005
255	0xbcc02690	-0.023455888

conv_out.bias f4 [12]
0	0xbcb7def6	-0.022445183
1	0xbc398b89	-0.011324772
2	0xbc1a9c81	-0.0094367275
3	0x3be77185	0.007063093
4	0xbc184d43	-0.009295764
5	0xbd0d975e	-0.034568183
6	0x3c941b27	0.018079353
7	0x3ccb8582	0.024843935
8	0xbcc47c39	-0.023985015
9	0xbc683152	-0.014171915
10	0xbcdd9802	-0.027050022
11	0x3d460bc3	0.04835106

88 f4 [32, 3, 3, 3]
0	0xbe9d0938	-0.30671096
1	0xbcea27a0	-0.028583348
2	0xbece074f	-0.4023995
3	0x3e47681e	0.19473311
4	0xbf17379c	-0.5906923
5	0x3ecc4acc	0.39900815
6	0xbf035fa8	-0.51317835
7	0xbf13463d	-0.5752905
8	0xbed7c55d	-0.42142764
9	0x3e7ef810	0.24899316
10	0xbe93bb6e	-0.28853935
11	0x3e23bab8	0.15989196
12	0xbf18c486	-0.5967487
13	0xbedd54fb	-0.43228897
14	0xbe9f6b22	-0.31136423
15	0xbe2ede4b	-0.17076986
16	0xbf0df4a0	-0.55451393
17	0x3ed1947c	0.40933597
18	0xbe486371	-0.19569184
19	0x3e210df5	0.1572798
20	0x3ebfecc8	0.37485337
21	0x3d9280f0	0.07153499
22	0x3e0b45d9	0.13600864
23	0x3f0c874d	0.5489395
24	0xbeab9027	-0.33508417
25	0x3e11fa00	0.14255524
26	0xbe99f634	-0.3007065
27	0x3f3d30b1	0.7390242
28	0x3f5f48b1	0.87220293
29	0xbfab3af0	-1.3377361
30	0x3fb20cab	1.3910116
31	0x3f072c69	0.5280214
32	0x3ea03244	0.3128835
33	0x3f3449c8	0.7042508
34	0x3f260db6	0.6486467
35	0xbeefdc57	-0.46847793
36	0xbf9308a8	-1.1487017
37	0xbee1e129	-0.44117096
38	0xbf8984bd	-1.0743634
39	0x3ee060a8	0.43823743
40	0xbe8d1657	-0.27556106
41	0xbf5cfd15	-0.8632367
42	0x3dc506e5	0.09620456
43	0x3f4a035b	0.7891137
44	0xbeceee04	-0.40415967
45	0xbdb27dd0	-0.08715403
46	0xbe90be0c	-0.28269994
47	0xbd039f4f	-0.03213435
48	0x3fb7d601	1.4362184
49	0x3f30ab08	0.6901097
50	0x3e5c4966	0.21512374
51	0x3ef02eaf	0.46910617
52	0xbd930d2b	-0.07180246
53	0x3e227630	0.15865397
54	0xbe842bf8	-0.25814795
55	0xc019c032	-2.4023557
56	0xbfd3c936	-1.654578
57	0x4024bc36	2.5739875
58	0x3eb66d53	0.35630283
59	0xbffbac1f	-1.9661902
60	0x3f824fea	1.0180638
61	0x402647b8	2.5981274
62	0xc0088a85	-2.1334546
63	0xbfda13d3	-1.70373
64	0xbf7db0f3	-0.9909813
65	0x3dc344df	0.095346205
66	0xbea0bcea	-0.3139413
67	0xbdc19c5b	-0.094536506
68	0xc019dd8e	-2.4041476
69	0x3febf079	1.8432761
70	0x402f0899	2.7348998
71	0x40001e37	2.0018442
72	0xbfe5f1fe	-1.7964475
73	0xc004c7f1	-2.0747035
74	0x3f8bca79	1.0921165
75	0x3ebb2095	0.36548296
76	0x3fa4b469	1.2867557
77	0xc01a4001	-2.4101565
78	0x3ee18a75	0.44050947
79	0x4011b29e	2.276527
80	0x3fce2014	1.610354
81	0x3d10986f	0.035301622
82	0x39ec6b34	0.000450933
83	0xbc4eb65f	-0.012616723
84	0xbe874589	-0.2642024
85	0xbdd76632	-0.10517539
86	0xbe799095	-0.2437156
87	0x3eddb89a	0.43304902
88	0x3ef12e92	0.47105843
89	0x3e83f79e	0.25774854
90	0xbeb6cc49	-0.35702732
91	0x3e9000ed	0.28125706
92	0x3e3f3904	0.18674093
93	0x3eaf2e8d	0.34215203
94	0xbde6e464	-0.11274031
95	0x3e20fc59	0.15721263
96	0x3f0115bf	0.50423807
97	0x3f07e3ce	0.5308198
98	0x3ef50d9e	0.47861952
99	0xbdae3dd2	-0.08507885
100	0x3e8d9129	0.2764981
101	0xbeb29fbb	-0.3488749
102	0x3d3ea9a8	0.046548516
103	0xbe484adb	-0.19559805
104	0xbd769dcf	-0.06020909
105	0xbdc7fc62	-0.09764935
106	0x3e749815	0.2388614
107	0x3f080be8	0.5314317
108	0x3f9294fc	1.1451716
109	0xbddb4345	-0.1070619
110	0x3fb81116	1.4380214
111	0xbf98ad8b	-1.1927961
112	0x3f396236	0.72415483
113	0xbeb36e50	-0.350451
114	0xbf5c623b	-0.8608739
115	0xbe94b3f3	-0.2904354
116	0xbfee50fb	-1.8618463
117	0x3ec44290	0.38332033
118	0x3f138e8e	0.57639396
119	0x3fdd587c	1.7292628
120	0xbf4a01c2	-0.7890893
121	0x3ed31bd7	0.41232178
122	0x3febc950	1.8420811
123	0xbfafb377	-1.3726643
124	0x3fb0fdaf	1.3827418
125	0xbfa90b24	-1.3206525
126	0x3f84a1ff	1.0361937
127	0x3f30157f	0.687828
128	0x3f12e56d	0.57381326
129	0x3fb62f77	1.4233235
130	0xbf8f938a	-1.12169
131	0x3eb9fe97	0.3632705
132	0xbf001407	-0.5003056
133	0xc00241d5	-2.035268
134	0xbf4fb987	-0.8114247
135	0xbfd4f73f	-1.6637954
136	0x3f0ac56e	0.54207504
137	0xbe11d7c5	-0.14242466
138	0x3d854334	0.065069586
139	0xbf1a1db7	-0.6020159
140	0x3e0367a0	0.12832499
141	0xbf0c469d	-0.5479525
142	0x3f3e074b	0.7422988
143	0x400804af	2.1252859
144	0x3cd47f9c	0.025939755
145	0xbfa443f7	-1.2833241
146	0xbfcb36f2	-1.5876143
147	0x3ca95e06	0.020674717
148	0xbfc0cfb6	-1.5063388
149	0xbfb745c0	-1.4318161
150	0xbf9fd9ca	-1.2488339
151	0xbf0d0154	-0.5508015
152	0x3e8cc9d9	0.27497748
153	0x3f911ec4	1.1337514
154	0x3edba8a6	0.42902106
155	0x3fa04925	1.2522322
156	0xbfb74abb	-1.4319681
157	0x3e4a7403	0.19770817
158	0xbfdb8001	-1.7148439
159	0x3fa36a26	1.2766769
160	0x3f145b90	0.57952213
161	0x40077f0a	2.1171288
162	0xc0185bd0	-2.3806038
163	0x40081135	2.1260502
164	0x402ac7b4	2.668439
165	0x3ff6d460	1.9283562
166	0x3ec86630	0.39140463
167	0x402b412e	2.6758533
168	0x3fd3ec8d	1.6556565
169	0x3ff99f9a	1.9501832
170	0x3b9171b1	0.004438602
171	0xc0226864	-2.5376215
172	0xbe1965cb	-0.14980237
173	0x3f555022	0.833254
174	0xc00f05e9	-2.2347357
175	0xbfce23d2	-1.6104681
176	0xc022d9e3	-2.5445487
177	0xbf985c91	-1.1903249
178	0x40132aaa	2.299479
179	0x3f29f1da	0.6638466
180	0xbf105124	-0.5637381
181	0xbb378734	-0.0028004171
182	0x40034f62	2.0517201
183	0xc0332208	-2.798952
184	0xc00a7968	-2.16366
185	0xbf4b5b22	-0.7943593
186	0xbfe8d600	-1.8190308
187	0x3fa73e91	1.3065969
188	0x400a474b	2.1606014
189	0xbf50c104	-0.8154452
190	0xbf5bfa9e	-0.85929286
191	0xbf7b6c95	-0.9821256
192	0x3ed5c582	0.4175225
193	0x3f35dd26	0.7104057
194	0xbf459710	-0.7718363
195	0xbe7613d1	-0.24030997
196	0x3eb45632	0.35222012
197	0xbf0bef4a	-0.54662
198	0x3f3c8a35	0.7364839
199	0x3d81c0a8	0.063355744
200	0xbec72ed1	-0.38902906
201	0x3e1ace18	0.15117681
202	0x3e946abf	0.2898769
203	0xbed3083d	-0.41217223
204	0xbf019dbc	-0.5063131
205	0x3db14596	0.086558506
206	0x3cd3714a	0.025810856
207	0x3cef4127	0.029205872
208	0xbe85185e	-0.25995153
209	0x3ecabdd7	0.3959796
210	0xbe119fd8	-0.14221132
211	0xbd6fe030	-0.05856341
212	0x3e75d8fd	0.24008556
213	0xbec3bbee	-0.38229316
214	0x3e9e4d5c	0.30918396
215	0xbe3694a9	-0.17830147
216	0x3f100eae	0.562724
217	0xbed0410f	-0.40674636
218	0xbe476ac9	-0.19474329
219	0x3e8211ee	0.25404304
220	0xbef19dd8	-0.47190738
221	0xbf461629	-0.77377564
222	0x3ee5135f	0.4474134
223	0xbe8a8c8d	-0.27060357
224	0x3ef87d32	0.48533016
225	0xbf56d010	-0.8391123
226	0xbeb8b648	-0.3607657
227	0xbf822790	-1.0168324
228	0x3f0acc57	0.5421805
229	0x3e89b6e5	0.2689735
230	0xbe83c476	-0.25735825
231	0xbd9f7103	-0.07785227
232	0xbf3d3e3b	-0.7392308
233	0x3e4174dc	0.18892235
234	0x3e036a74	0.12833577
235	0xbf0c3b92	-0.547784
236	0x3e047ff2	0.12939432
237	0x3e10c9c2	0.14139464
238	0xbf208ef1	-0.6271811
239	0x3ede8a67	0.43464968
240	0x3f178df6	0.5920099
241	0xbe30b1ac	-0.17255276
242	0xbf3dd308	-0.74150133
243	0xbe01f394	-0.12690574
244	0x3edbf6e9	0.42961815
245	0x3ec7ce55	0.39024606
246	0xbea1a150	-0.31568384
247	0xbe4a802d	-0.19775458
248	0x3e9ab514	0.30216277
249	0x3ef4b444	0.47793782
250	0x3e9753f6	0.29556245
251	0xbe184bc9	-0.1487266
252	0x3e893c53	0.26803836
253	0xbea82e03	-0.32847604
254	0xbd95931e	-0.07303451
255	0x3d6a677f	0.057227608

89 f4 [32]
0	0xbf55340b	-0.83282536
1	0x3f4bf7e1	0.7967511
2	0xbd931f56	-0.07183711
3	0x3f503de6	0.8134445
4	0x3b8fb380	0.0043854117
5	0xbf481eac	-0.781718
6	0x3f02c31a	0.5107895
7	0xbf283f38	-0.65721464
8	0xbf5e4acf	-0.868329
9	0x3f4a9e5d	0.79147893
10	0xbf42008e	-0.75782096
11	0x3f00fc62	0.50385106
12	0xbf374070	-0.715827
13	0x3f375f14	0.7162945
14	0xbf6cab14	-0.92448545
15	0x3f58eda2	0.847376
16	0xbf5cc6cc	-0.8624084
17	0xbf55051d	-0.8321093
18	0x3f14df35	0.58153087
19	0x3d5a060a	0.053228416
20	0x3f4095d2	0.7522861
21	0x3dee1656	0.11625354
22	0x3f526213	0.821809
23	0xbefa12d8	-0.48842502
24	0x3f4946b5	0.78623515
25	0xbf07cf47	-0.53050655
26	0xbcead32c	-0.028665148
27	0xbf52e92f	-0.8238706
28	0x3f1ee89d	0.6207369
29	0x3e51a631	0.20473553
30	0xbf55fc50	-0.83588123
31	0x3f4ef1a4	0.80837464

91 f4 [32, 1, 3, 3]
0	0x3c827377	0.015924199
1	0x3ef8b8c3	0.48578462
2	0xbd33a77c	-0.043860897
3	0x3f326576	0.6968607
4	0xbf81b023	-1.0131878
5	0xbf43b3cb	-0.7644622
6	0xbec96e79	-0.39342096
7	0x3f6ca5e3	0.92440623
8	0xbf523d1a	-0.82124484
9	0xbccfa006	-0.02534486
10	0xbe96ba75	-0.2943913
11	0xbeaaa0c2	-0.33325773
12	0xbe667619	-0.22505988
13	0xbe3c30c1	-0.18377973
14	0xbe1be093	-0.15222387
15	0xbe4d5fb7	-0.20056044
16	0x3c8f8d2b	0.017523369
17	0x3eb6e5ef	0.357223
18	0xbe6858ba	-0.22690096
19	0xbde5149a	-0.1118557
20	0xbe9783a3	-0.29592618
21	0x3c4984a3	0.012299689
22	0x3e0d45c1	0.1379614
23	0xbdf86e59	-0.12130422
24	0xbee90b4e	-0.45516437
25	0xbdb581be	-0.08862637
26	0xbf036917	-0.5133223
27	0x3fe8ac20	1.8177528
28	0xbf633bd7	-0.88763183
29	0x3fa19519	1.2623626
30	0x400b37bf	2.1752775
31	0x3f3187e3	0.6934797
32	0xc034b18f	-2.8233373
33	0xbf62c9a0	-0.88588905
34	0x400bc98f	2.1841772
35	0xc041ac1c	-3.0261297
36	0x3f375bb3	0.71624297
37	0xbf1e4f5e	-0.61839855
38	0xbf02d0e8	-0.51100016
39	0x3f38a05c	0.7211969
40	0xbf0279fb	-0.5096738
41	0xbf3c5b40	-0.73576736
42	0x3be72c68	0.007054854
43	0xbf06b88b	-0.5262534
44	0xbe9615b8	-0.29313445
45	0x3f8fc622	1.123234
46	0x3f4246a6	0.7588905
47	0xbfed6daa	-1.8549092
48	0xbf04f498	-0.5193572
49	0xbfae8d86	-1.363694
50	0xbf9849b2	-1.189749
51	0x3f5b3c86	0.85639226
52	0x3f078bdf	0.529478
53	0x3ff14a23	1.885075
54	0x3daef12d	0.085420944
55	0xbedff81e	-0.43743986
56	0xbd800cd0	-0.06252444
57	0xbea29c54	-0.31759894
58	0xbee11c27	-0.4396679
59	0xbeddc4fe	-0.43314356
60	0x3ebf0996	0.37312
61	0xbe8390f6	-0.25696534
62	0x3e8103e1	0.25198272
63	0xbea874be	-0.32901567
64	0x3f290940	0.6602974
65	0xbedecca2	-0.43515497
66	0x3eb4585f	0.35223672
67	0xbf3f14de	-0.74641216
68	0xbee5a7c2	-0.44854552
69	0x3cd4a8a6	0.025959324
70	0x3d1acfd0	0.03779584
71	0xbe7cddfd	-0.24694057
72	0xbe0dd1de	-0.13849589
73	0xbd9255d1	-0.071452744
74	0x3e9b40d4	0.30322897
75	0xbef35c67	-0.47531435
76	0xbecf8c8b	-0.40536913
77	0x3dee102e	0.1162418
78	0xbd8e6399	-0.069525905
79	0xbe19a4f6	-0.15004334
80	0xbd8b7acc	-0.06810531
81	0x3fcaeb7c	1.5853114
82	0xbfae441b	-1.3614534
83	0x3faee886	1.366471
84	0x3f430c24	0.761904
85	0xbf48072d	-0.7813595
86	0xbd9e4634	-0.07728234
87	0xbf16ad3b	-0.5885808
88	0xbf2ed40f	-0.68292326
89	0xbf7db7a9	-0.9910837
90	0x3eb1bcf7	0.3471448
91	0x3e96950d	0.29410592
92	0x3e94f905	0.29096237
93	0x3dd835b3	0.10557117
94	0x3d76a00d	0.06021123
95	0x3dcb7e62	0.09936215
96	0x3e76f296	0.24115977
97	0x3d1496c9	0.036276612
98	0xbecc6b55	-0.39925638
99	0x3f5236d9	0.8211494
100	0xba9281bc	-0.001117758
101	0xbf007a84	-0.50186944
102	0x3e9643b1	0.2934852
103	0xbec02b2b	-0.37532935
104	0xbebb8157	-0.36622116
105	0x3e4a3167	0.19745408
106	0xbe609cfe	-0.21934888
107	0xbf5f1acc	-0.87150264
108	0x3f3ee0d4	0.7456181
109	0x40abaa09	5.3645062
110	0x3ed98e50	0.42491388
111	0x3f4230df	0.7585582
112	0xbeedec82	-0.46469504
113	0xc06b3d10	-3.675602
114	0x3eed4deb	0.4634851
115	0xc0924f1e	-4.572158
116	0x3fe37911	1.7771322
117	0x3f2524dc	0.6450937
118	0x3f227940	0.6346626
119	0xbd3840e9	-0.04498378
120	0xbf1ad0cf	-0.60474867
121	0x3d5fc9d7	0.05463585
122	0x3ee9f786	0.45696658
123	0x3d8a5ff2	0.06756581
124	0xbf34cccf	-0.70625013
125	0x3f11db05	0.5697482
126	0xc01f5879	-2.489775
127	0x3ec7579f	0.38934037
128	0x40213349	2.5187552
129	0xbfadfea3	-1.3593334
130	0xbf1c3e44	-0.6103251
131	0x3f2dae9a	0.67844546
132	0xbf3f8a6b	-0.74820584
133	0x3f93f728	1.1559801
134	0x3f2dd985	0.67910033
135	0xbeff9d6b	-0.49924788
136	0xbeadde20	-0.3395853
137	0xbfa857dc	-1.3151813
138	0xbf3fc287	-0.749062
139	0xc028336a	-2.628138
140	0x405e6661	3.4749987
141	0xbf0bca49	-0.5460554
142	0x3f89b569	1.0758487
143	0x3fb76552	1.4327796
144	0x3e7217dd	0.23641916
145	0xbdfa530d	-0.12222872
146	0xbe8bc990	-0.27302217
147	0xbc1ce97f	-0.009577154
148	0xbe976b06	-0.2957384
149	0xbe1e4326	-0.15455303
150	0xbdfef681	-0.12449361
151	0xbead01e6	-0.3379051
152	0x3dcfa24a	0.10138376
153	0x3f899dc3	1.075127
154	0xbe49f3cc	-0.19721907
155	0x3ec88557	0.3916423
156	0x3f34e05b	0.7065484
157	0x3f3aa857	0.72913116
158	0xbe836665	-0.25664058
159	0x3f2f5ad1	0.6849795
160	0xbf6e6d5c	-0.9313562
161	0xbfa6dfcc	-1.3037047
162	0x3dc8abfb	0.09798428
163	0xbd8ce4a8	-0.0687955
164	0x3e865b4a	0.26241523
165	0x3d7e6626	0.062109135
166	0xbd051e0e	-0.032499366
167	0x3e76f4bb	0.24116795
168	0x3e49a271	0.19690873
169	0x3e0ce745	0.13760097
170	0x3e1e21c0	0.15442562
171	0xbe5398a2	-0.20663694
172	0x3f0d7000	0.55249023
173	0x3ec9fa8e	0.3944897
174	0xbeabd1bb	-0.3355845
175	0xbef3f9f8	-0.4765165
176	0x3f56de07	0.83932537
177	0xbf390eb7	-0.7228808
178	0x3dd3ada7	0.10335856
179	0xbe8be82e	-0.27325577
180	0xbfeea052	-1.8642676
181	0xbf796031	-0.974124
182	0xbf4703a9	-0.7773996
183	0x3f7b99fd	0.9828184
184	0xbe048132	-0.12939909
185	0x3ff2808c	1.8945479
186	0x3e77ce5d	0.24199815
187	0xbce9640f	-0.028490094
188	0x3fa03208	1.2515268
189	0x3dcf81d8	0.101321876
190	0x3f86aacf	1.0520877
191	0x3f54e5b5	0.83163005
192	0x3e05180d	0.12997456
193	0xbf8b8cd0	-1.0902348
194	0x3f8c8213	1.0977196
195	0xbf9501a6	-1.1641128
196	0x3ef04d1d	0.46933833
197	0xbfc076b7	-1.5036229
198	0x3d05a6fd	0.032629956
199	0x3d7ef66e	0.062246732
200	0x3e91a5ca	0.284468
201	0xbec11ccf	-0.37717292
202	0xbed2c680	-0.41167068
203	0xbe0ded20	-0.13859987
204	0xbe8e8268	-0.27833867
205	0xbeeecf16	-0.4664237
206	0x3ebac0c0	0.36475182
207	0x3e165d8b	0.14684121
208	0x3f0c887a	0.54895747
209	0x3f190d34	0.5978577
210	0xbe90b7a2	-0.282651
211	0xbe8161b9	-0.2526987
212	0xbf0fe320	-0.5620594
213	0x3f3f1659	0.74643475
214	0x3f166a59	0.58756024
215	0xbdff415a	-0.12463637
216	0xbf20e638	-0.62851286
217	0x3fea9989	1.8328105
218	0xbf21938f	-0.6311578
219	0xbf5d8b27	-0.86540455
220	0x3f13ba65	0.5770629
221	0xbf71ee16	-0.94503915
222	0xbe398099	-0.18115462
223	0x3fc48373	1.5352615
224	0xbfef108c	-1.8676925
225	0x3f536dba	0.82589304
226	0xbf9f6240	-1.2451859
227	0xbf1b8eba	-0.6076466
228	0x3f5cc0ba	0.8623158
229	0x3e1164c0	0.1419859
230	0x3f892839	1.07154
231	0xbe9c0688	-0.30473733
232	0x3fbcea49	1.4758998
233	0xbf7ac3a9	-0.97954804
234	0x3ee2b332	0.4427734
235	0xbf7c4ee0	-0.98557854
236	0xbf457dd1	-0.77145106
237	0x3f8cb5a1	1.0992929
238	0xbfe25e77	-1.7685078
239	0x3f60da15	0.87832767
240	0x3f0ca89e	0.5494479
241	0xbee7484b	-0.45172343
242	0x3f91766a	1.1364262
243	0x3f8f044a	1.1173184
244	0xbfb11ceb	-1.383695
245	0x3fcbe8ac	1.5930381
246	0xbfb7d5df	-1.4362143
247	0xbf845ea8	-1.0341387
248	0x3fdaba21	1.7088052
249	0x3f967a1a	1.1756012
250	0x3f7068d6	0.93909967
251	0xbfd9c6ee	-1.7013834
252	0x3da85531	0.08219374
253	0x3e1cb2d8	0.15302598
254	0x3d983746	0.074324176
255	0x3e20fea7	0.15722142

92 f4 [32]
0	0xbaa75620	-0.0012766756
1	0x3d1e6f7f	0.03868055
2	0x3de620f8	0.11236757
3	0xb9eeb680	-0.0004553087
4	0xbea18ff2	-0.31555134
5	0xbd1e1694	-0.03859575
6	0xbce5e76a	-0.028064448
7	0x3cb0a6aa	0.021563847
8	0xbd0df92e	-0.034661464
9	0x3e268a95	0.16263802
10	0xbd003bc7	-0.031307008
11	0xbd3d8bc3	-0.046275865
12	0x3e1edcc0	0.15513897
13	0xbce5ed38	-0.028067216
14	0x3e1e333d	0.15449233
15	0x3e1651c5	0.1467963
16	0xbd53ab4a	-0.051677026
17	0xbcd64586	-0.026156198
18	0x3d77b023	0.06047071
19	0xbd730a39	-0.05933592
20	0xbdab1c2a	-0.08354981
21	0xbca31aa0	-0.019910157
22	0xbd513e98	-0.051085085
23	0xbe51fc6d	-0.20506449
24	0x3dc03c13	0.09386458
25	0xbdadb2d8	-0.08481377
26	0xbd83ad5c	-0.0642955
27	0xbd1ef679	-0.038809273
28	0xb9681200	-0.0002213195
29	0xbcbb107e	-0.022835013
30	0xbd75f9dc	-0.060052738
31	0xbcc81839	-0.024425613

94 f4 [64, 32, 1, 1]
0	0x3ea3ea8a	0.32014877
1	0xbeb2ad1b	-0.34897694
2	0x3e8a84d0	0.27054453
3	0x3e95d27b	0.29262146
4	0xbe66e96d	-0.22549982
5	0xbdd7dfba	-0.10540719
6	0x3e8d5a0b	0.2760776
7	0xbee25828	-0.44207883
8	0x3e01f000	0.12689209
9	0x3ed979c8	0.42475724
10	0xbebfea0d	-0.37483254
11	0x3d50898a	0.050912417
12	0x3dcdca2f	0.10048329
13	0xbe21645c	-0.1576094
14	0x3eda9e69	0.42698982
15	0xbe100b09	-0.1406671
16	0x3dded23a	0.10879941
17	0x3e00f854	0.1259473
18	0xbe94a5cc	-0.29032743
19	0xbd8d826b	-0.06909641
20	0xbde323b0	-0.11090791
21	0x3ea21a49	0.3166068
22	0xbeba0fa8	-0.3634007
23	0x3e1bfadd	0.15232415
24	0x3eb5cdaa	0.35508472
25	0x3d98394a	0.07432802
26	0xbe646e8c	-0.22307795
27	0x3e878d54	0.26475012
28	0xbebd58ae	-0.3698172
29	0x3e31d57f	0.17366599
30	0xbe5abf28	-0.21361983
31	0xbdaf6d02	-0.085657135
32	0xbed62e88	-0.41832376
33	0x3ddb5a5e	0.107105955
34	0xbe339fb8	-0.17541397
35	0x3f38ef1b	0.72239846
36	0xbdb42edb	-0.087979995
37	0xbe932aaf	-0.28743502
38	0xbe2823c7	-0.16419898
39	0x3ee669fb	0.45002732
40	0x3ee8eee7	0.45494768
41	0xbe2075ea	-0.1566998
42	0x3e261a04	0.16220862
43	0x3efa9002	0.48937994
44	0xbee97743	-0.45598802
45	0x3eb8b6c1	0.3607693
46	0xbdb9a6f3	-0.09065046
47	0xbe8f0a27	-0.27937433
48	0x3e11e67f	0.14248084
49	0x3eb30e80	0.34972
50	0xbef66585	-0.48124328
51	0x3ecaa526	0.39579123
52	0x3e82bb45	0.255335
53	0x3f0bca4a	0.54605544
54	0xbd1054a4	-0.03523697
55	0xbc339ec1	-0.010963143
56	0x3ec0ad4e	0.3763222
57	0xbefb7850	-0.4911523
58	0xbe0f4106	-0.13989648
59	0xbe2c2880	-0.16812325
60	0xbec6c382	-0.38821036
61	0xbe45d36d	-0.19318934
62	0xbee25fcc	-0.44213712
63	0xbf085145	-0.5324901
64	0xbdb0366b	-0.086041294
65	0x3f0201aa	0.5078379
66	0x3e25a099	0.16174544
67	0xbeedc4ea	-0.46439296
68	0x3e26fe3c	0.1630792
69	0x3ecfaaea	0.40560085
70	0xbe9f3405	-0.31094375
71	0x3e9237ae	0.28558105
72	0x3e62af1c	0.22137111
73	0x3db7a2f7	0.0896663
74	0x3db902cb	0.09033736
75	0xbdd050a9	-0.10171635
76	0xbef249f6	-0.47322053
77	0xbd747e5b	-0.059690814
78	0x3ebe1104	0.37122357
79	0x3e7bbcd0	0.24583745
80	0xbdcc6828	-0.09980804
81	0xbed395f3	-0.4132534
82	0xbeadcbcd	-0.3394455
83	0xbdbc6bd8	-0.09200257
84	0x3e0d28dd	0.1378512
85	0x3f16bcc2	0.5888177
86	0xbd57c2c8	-0.052675992
87	0x3e748af1	0.23881127
88	0xbea1c775	-0.31597486
89	0xbf0eec42	-0.5582925
90	0xbec06f7e	-0.37585062
91	0x3ebbec12	0.36703545
92	0xbea55d29	-0.32297638
93	0xbe83268f	-0.25615355
94	0xbd5eb629	-0.05437294
95	0xbe8a43dd	-0.270049
96	0xbdce2b35	-0.10066835
97	0xbe9fa7ee	-0.31182808
98	0xbe4450a8	-0.19171393
99	0x3ee37b6d	0.44430104
100	0xbf050922	-0.5196706
101	0xbd0c01e2	-0.034181483
102	0x3e282258	0.16419351
103	0xbea65a41	-0.32490733
104	0x3e4862b3	0.19568901
105	0x3cf48458	0.029848263
106	0x3ed7a080	0.4211464
107	0x3ee6ff91	0.45116857
108	0x3e01e047	0.12683211
109	0xbea859e7	-0.3288109
110	0xbda1449f	-0.078744166
111	0x3e8730b8	0.26404357
112	0x3eafc7d8	0.34332156
113	0x3d718151	0.058961216
114	0xbe715396	-0.23567042
115	0x3e9af9cf	0.30268714
116	0xbec0e9f2	-0.37678486
117	0xbe9ab013	-0.3021246
118	0xbe30111e	-0.1719403
119	0xbe3378b3	-0.17526512
120	0xbea9bee3	-0.33153448
121	0x3e5cbcd5	0.21556409
122	0x3f054526	0.5205864
123	0xbda279c9	-0.07933385
124	0x3de3e7b3	0.111281775
125	0x3edde25f	0.4333677
126	0xbe166a3e	-0.14688966
127	0x3e2196c5	0.1578017
128	0xbe5d9cb9	-0.21641816
129	0x3d2c9048	0.042129785
130	0x3c69cb29	0.014269629
131	0xbd71ad63	-0.059003245
132	0x3e1b9ca1	0.15196468
133	0x3e0d50e4	0.13800389
134	0xbece0f3d	-0.40246
135	0xbde2a2cb	-0.110662065
136	0xbd498ffa	-0.049209572
137	0xbed70dde	-0.42002767
138	0x3e280473	0.16407947
139	0x3d8797f2	0.06620778
140	0xbe7c4663	-0.24636225
141	0x3e1f1d44	0.15538508
142	0xbeb88b20	-0.36043644
143	0x3ebb4dd9	0.3658283
144	0xbe36b640	-0.1784296
145	0x3eb11d25	0.34592548
146	0x3e0cd28c	0.13752192
147	0xbeaec977	-0.3413808
148	0xbdfed628	-0.12443191
149	0x3e691791	0.22762896
150	0x3e9e9200	0.30970764
151	0x3e3d414c	0.1848194
152	0x3dac319d	0.084079005
153	0x3e3cf9ec	0.18454713
154	0x3e6ab7c2	0.2292166
155	0x3ead484a	0.33844215
156	0xbeb8880e	-0.360413
157	0x3c108602	0.008821012
158	0xbe222228	-0.15833342
159	0xbe1ef74f	-0.15524028
160	0xbeeb5751	-0.45965055
161	0xbef2fa8d	-0.4745678
162	0x3f1f3c47	0.6220135
163	0xbdf640ca	-0.12024076
164	0x3e820f40	0.2540226
165	0xbe6b5ff5	-0.22985823
166	0xbea6e50b	-0.3259662
167	0x3f088a16	0.533357
168	0x3f02ca31	0.5108977
169	0x3f027276	0.50955904
170	0x3ec9f8cc	0.3944763
171	0xbf1be873	-0.60901564
172	0xbe96f1d6	-0.2948138
173	0xbeb08967	-0.3447983
174	0x3ea02bed	0.31283513
175	0xbe0e8578	-0.13918102
176	0x3ced9c55	0.029005209
177	0x3e0498b6	0.1294888
178	0x3df3aa73	0.11897745
179	0x3f05fc82	0.5233842
180	0xbe032e3e	-0.12810609
181	0xbeb9c0bb	-0.36279854
182	0x3e574244	0.21021372
183	0xbef0b800	-0.4701538
184	0x3ec01590	0.3751645
185	0xbe086c2c	-0.13322514
186	0x3ed201a7	0.41016886
187	0xbeefdf86	-0.46850222
188	0xbe8ff937	-0.28119823
189	0xbdda8eda	-0.10671778
190	0x3d82efd7	0.06393402
191	0xbe22bba3	-0.1589189
192	0x3dac3a3b	0.08409544
193	0x3d7823ee	0.06058114
194	0x3dfa5f5c	0.122252196
195	0x3e244722	0.1604276
196	0xbec37a36	-0.38179177
197	0x3d7a444b	0.061100286
198	0xbd071cc5	-0.03298642
199	0x3e3f064f	0.1865475
200	0x3de4d2f2	0.11173047
201	0x3e131560	0.14363623
202	0x3e4dc81b	0.20095865
203	0x3df8c8ae	0.121476516
204	0xbe8c88f7	-0.27448246
205	0xbd716209	-0.058931384
206	0x3e8b91d3	0.27259693
207	0x3afaee93	0.0019144587
208	0xbe9c4ab7	-0.30525753
209	0xbe027144	-0.1273852
210	0xbe1524ad	-0.14564772
211	0xbe340cc0	-0.17582989
212	0xbe9f8633	-0.31157073
213	0xbe930701	-0.2871628
214	0xbd14683e	-0.036232226
215	0xbe923674	-0.2855717
216	0x3ddf15aa	0.10892804
217	0xbd325886	-0.043541454
218	0x3db3a9ff	0.087726586
219	0x3d277789	0.040885482
220	0x3d41848b	0.047245543
221	0x3d282d3b	0.04105876
222	0xbda78bc7	-0.08180957
223	0x3e2f87c2	0.17141631
224	0x3e81d48e	0.2535748
225	0xbdd419e9	-0.103565045
226	0x3ef743e9	0.48294
227	0xbeb04185	-0.34424987
228	0x3c0e3cbb	0.008681471
229	0x3eb77d24	0.35837662
230	0x3e3d3e2d	0.1848075
231	0x3e5ed827	0.21762143
232	0x3db4b1cd	0.08822975
233	0xbe1b3ab0	-0.15159106
234	0xbe7a5470	-0.24446273
235	0xb755d4af	-1.2745309e-05
236	0x3e60d694	0.21956855
237	0x3d3625c1	0.0444696
238	0x3d3e5efa	0.046477295
239	0x3f00b1e6	0.5027145
240	0x3e9b53e2	0.30337435
241	0xbe1679f2	-0.14694956
242	0xbe1adf0c	-0.15124148
243	0x3ed8fa60	0.4237852
244	0x3d528e80	0.05140543
245	0x3ee87729	0.45403412
246	0x3ea6541b	0.32486042
247	0xbec418e2	-0.38300234
248	0x3eaa2673	0.3323246
249	0x3d2a1e6e	0.041532926
250	0xbd0e965f	-0.034811374
251	0x3e4e1a26	0.20127162
252	0xbe7768d8	-0.24161088
253	0xbd8d4a33	-0.06898918
254	0x3dd19b8e	0.10234748
255	0x3ea38f8b	0.31945452

95 f4 [64]
0	0xbe1ca181	-0.15295984
1	0x3d84ad40	0.06478357
2	0x3e8206ee	0.25395912
3	0xbdbd02c9	-0.09229047
4	0x3b128bf8	0.002236126
5	0xb9db8100	-0.00041867048
6	0x3e962179	0.29322413
7	0xbf875841	-1.0573808
8	0x3f01c310	0.50688267
9	0xbf38aca5	-0.72138435
10	0xbdeabc52	-0.114617005
11	0xbe05ac97	-0.13054119
12	0x38eb4000	0.00011217594
13	0x3c73ca82	0.014879825
14	0xbeea250e	-0.45731395
15	0x3f60f756	0.87877405
16	0xbed04f0f	-0.40685317
17	0xbef4f230	-0.47841024
18	0x3f1b0205	0.60549957
19	0x3dced765	0.10099677
20	0xbcacc3c8	-0.02108945
21	0x3f0f5922	0.5599538
22	0xbea32c1e	-0.31869596
23	0xbf44af6f	-0.7683019
24	0xbe20c125	-0.15698679
25	0x3ef3f01a	0.4764412
26	0xbf5f29f4	-0.8717339
27	0x3c99c64e	0.018771317
28	0xbea79514	-0.32730925
29	0x3da3f55d	0.08005784
30	0xbeba989e	-0.36444563
31	0xbe3092df	-0.17243527
32	0x3dd7c2ca	0.105352
33	0x3f10dfc8	0.56591463
34	0xbf1de581	-0.6167832
35	0xbf1a1678	-0.60190535
36	0x3ec71875	0.38885847
37	0xbee0a5da	-0.43876535
38	0x3ea34a89	0.31892803
39	0xbe6930fe	-0.22772595
40	0xbe85db59	-0.2614391
41	0x3f347a4c	0.7049911
42	0xbf8d3035	-1.1030337
43	0xbe0e2982	-0.13883021
44	0x3e7649c3	0.24051575
45	0x3ddef3e0	0.10886359
46	0x3ec6492e	0.38727707
47	0x3e352224	0.17688805
48	0x3cac5650	0.02103725
49	0xbd5dc87a	-0.054146267
50	0x3f158fa0	0.5842228
51	0xbe3b5cae	-0.18297073
52	0xbd13c888	-0.036079913
53	0x3ed287b7	0.41119167
54	0xbdc1ed58	-0.09469098
55	0xbf95271a	-1.1652558
56	0x3e5af736	0.21383366
57	0x3e1c9824	0.15292412
58	0xbeb18572	-0.34672123
59	0x3dbb7d5d	0.091547705
60	0x3f184037	0.59472984
61	0x3e8d02c7	0.2754118
62	0xbd13b644	-0.036062494
63	0x3d01401a	0.031555273

97 f4 [64, 1, 3, 3]
0	0xbf4c1998	-0.7972655
1	0x3e16e7b4	0.14736825
2	0xbf696c9d	-0.91181356
3	0x3f775a80	0.9662247
4	0xbeb40a7c	-0.3516425
5	0x3f6ac417	0.9170546
6	0xbf2da95a	-0.67836535
7	0xbf803a37	-1.0017766
8	0xbd0cf59b	-0.034413915
9	0xbf239481	-0.63898474
10	0x3c3cce3b	0.011523779
11	0xbf4ddf61	-0.80418974
12	0xbe42e632	-0.19033125
13	0x3e7cda81	0.24692728
14	0xbf143e1a	-0.5790726
15	0xbe354e1b	-0.17705576
16	0x3f19f479	0.6013866
17	0xbd9e9b6c	-0.07744488
18	0xbdbc579f	-0.091964
19	0xbf112646	-0.56699026
20	0xbf1c2a12	-0.61001694
21	0xbf47ccc4	-0.7804682
22	0xbea3b7a5	-0.31976047
23	0x3efadaa6	0.4899494
24	0x3ee59604	0.44841015
25	0x3e140de3	0.14458422
26	0x3ecefbb7	0.40426418
27	0x3ebc731f	0.3680658
28	0x3edb229e	0.42799848
29	0xbf441223	-0.76590174
30	0xbf27231e	-0.6528796
31	0xbf1ebd0a	-0.620072
32	0x3eeb7a01	0.4599152
33	0x3f1eb925	0.6200126
34	0xbe2fe453	-0.17176943
35	0x3f2af66a	0.6678225
36	0xbf3cd448	-0.73761415
37	0x3dc1b24e	0.09457837
38	0x3faae71d	1.335178
39	0xbf22a350	-0.63530445
40	0x3e961cae	0.29318756
41	0xbf3f540a	-0.7473761
42	0xbf7c2ad0	-0.98502827
43	0x3f5aef10	0.8552103
44	0xbf3255be	-0.6966208
45	0xbe6a46b4	-0.22878534
46	0x3edfe1e0	0.43727016
47	0x3eb7419b	0.3579224
48	0x3ec6f616	0.38859624
49	0xbd80c654	-0.06287828
50	0xbe737f80	-0.23779106
51	0x3e86552b	0.26236853
52	0x3f323f03	0.696274
53	0x3e8d4f7d	0.27599707
54	0x3fa28281	1.2696077
55	0x3f71d541	0.94466025
56	0xbf606ed6	-0.8766912
57	0x3fc25249	1.5181361
58	0xbf328772	-0.69737923
59	0xbfdc719f	-1.7222174
60	0x3f26bb57	0.6512961
61	0xbfc19b25	-1.5125471
62	0x3e83833f	0.2568607
63	0x3d6bfded	0.05761521
64	0xbec5f0c4	-0.38660252
65	0xbdcaa34a	-0.09894426
66	0xbe1b2877	-0.15152155
67	0x3ee9e361	0.4568129
68	0xbec6b3e0	-0.3880911
69	0xbe9fa37c	-0.31179416
70	0xbf1886a9	-0.59580475
71	0xbe8eb25b	-0.2787045
72	0xc05f9adc	-3.4938269
73	0x4066de0e	3.6073031
74	0x404d3c61	3.2068102
75	0x409d4bfb	4.915525
76	0xc058831f	-3.383003
77	0x3ff101a0	1.8828621
78	0xc0a16a1f	-5.044204
79	0x4001e331	2.0294917
80	0xc0956c2e	-4.6694555
81	0xbf20e85b	-0.62854546
82	0xbe9d6fca	-0.3074935
83	0x3f265d0b	0.6498572
84	0x3f1feaaf	0.62467474
85	0xbeb1a56a	-0.34696513
86	0x3f077eb2	0.52927697
87	0x3f033ae6	0.51261747
88	0x3e9fe61d	0.3123025
89	0xbef4bc05	-0.47799698
90	0xbe4a00b6	-0.19726834
91	0x3e9aefa4	0.30260956
92	0x3ef27643	0.47355852
93	0x3f6f380f	0.93444914
94	0x3d5a225f	0.053255435
95	0x3c9f0070	0.019409388
96	0xbe50b762	-0.20382455
97	0x3f1232b8	0.5710864
98	0xbf5ac6a9	-0.8545938
99	0x3f43cc61	0.7648373
100	0xbe26dd29	-0.16295303
101	0x3cb75359	0.02237861
102	0x3eb7ea78	0.35921073
103	0x3f52cded	0.8234547
104	0xbeb6b2e1	-0.3568335
105	0x3db38859	0.087662406
106	0x3df3e737	0.11909335
107	0x3ef7ef33	0.48424682
108	0xbf0fb103	-0.56129473
109	0xbcc8acde	-0.024496492
110	0xbf98f850	-1.1950779
111	0x3f43311d	0.76246816
112	0xbfa1b981	-1.2634736
113	0xbe0b5c30	-0.13609385
114	0x3ea7ebac	0.3279699
115	0xbe909aa6	-0.28242987
116	0x3fb80975	1.4377886
117	0xbe8aa72c	-0.27080667
118	0x3f4badac	0.7956188
119	0x3ed22efe	0.41051477
120	0x3e920544	0.28519642
121	0x3e9703b8	0.29495025
122	0x3c8dd53e	0.017313596
123	0x3d4694c9	0.048481736
124	0xbf48f44e	-0.7849778
125	0xbf23c035	-0.6396516
126	0x3f9a10ba	1.2036355
127	0x3f0b501f	0.5441913
128	0x3f7135cd	0.9422272
129	0xbf6e06bd	-0.9297903
130	0xbcfefb15	-0.031125585
131	0x3ebdb3fc	0.3705138
132	0xbfb42d39	-1.4076301
133	0xbec531a4	-0.38514435
134	0xbe685081	-0.2268696
135	0xbef2b177	-0.4740102
136	0x3ed97032	0.4246841
137	0xbf33640b	-0.7007453
138	0xbfb7ae8e	-1.4350145
139	0xbf6b6567	-0.919516
140	0x3eca38d2	0.39496475
141	0xbe8f6c73	-0.28012428
142	0x3d36ae3c	0.044599757
143	0x3f8e852c	1.1134391
144	0x3e044ee5	0.12920721
145	0xbed3906e	-0.4132113
146	0xbe1301c6	-0.14356145
147	0xbebf37c7	-0.37347242
148	0xbe8fd0ac	-0.28088892
149	0xbee1fe6e	-0.44139427
150	0x3e06e26c	0.1317231
151	0xbe9c3702	-0.30510718
152	0x3e857ba4	0.26070893
153	0xbd215e95	-0.03939684
154	0xbf217a12	-0.6307689
155	0xbef50484	-0.47855008
156	0x3f18e17e	0.59719074
157	0xbdf52623	-0.119701646
158	0xbf0a27bc	-0.5396688
159	0xbeab4b01	-0.3345566
160	0x3ead2c5c	0.33822906
161	0xbf32c05a	-0.69824755
162	0x3e6f64c4	0.23378283
163	0x3f61411f	0.8798999
164	0x3e70b819	0.23507728
165	0xbe3e7c60	-0.18602133
166	0x3f459de4	0.77194047
167	0xbea6eed7	-0.32604095
168	0x3ca631bd	0.020287389
169	0x3de0db03	0.10979273
170	0x3da0919b	0.07840272
171	0x3f70d08c	0.9406822
172	0x400bbfea	2.1835885
173	0xbe5b9a89	-0.21445669
174	0xbe731a9e	-0.23740622
175	0x3fa2f8ca	1.2732174
176	0xbffd00dd	-1.9765888
177	0xbe713a24	-0.23557335
178	0xbdb110bc	-0.0864577
179	0xbfc26fdb	-1.5190386
180	0x3eddcdf3	0.4332119
181	0x3f48d33c	0.7844732
182	0x3f0c03a1	0.5469304
183	0xbf6d3f18	-0.926744
184	0xbee01918	-0.43769145
185	0x3ee6e440	0.45096016
186	0xbf8f0ecb	-1.117639
187	0x3de29941	0.11064387
188	0x3f64a865	0.8931945
189	0xbf7a6cd5	-0.97822315
190	0xbf98a2ef	-1.1924723
191	0x3dbbffa0	0.09179616
192	0xbf936cef	-1.1517619
193	0x3f5fa6bc	0.8736379
194	0xbf01a638	-0.50644255
195	0x3f1f0ff7	0.62133735
196	0x3f9498fb	1.1609186
197	0xbc8ea9a4	-0.017414875
198	0x3dcc791b	0.099840365
199	0xbea9f42f	-0.3319411
200	0xbef0af95	-0.47008958
201	0xbea50c8f	-0.32236144
202	0xbe878e78	-0.26475883
203	0xbdd83ed2	-0.10558857
204	0xbeb32f04	-0.34996808
205	0xbe0aebb6	-0.13566479
206	0xbe82da38	-0.25557113
207	0x3f10d575	0.5657571
208	0xbf41b91a	-0.7567307
209	0xbf467664	-0.775244
210	0x3f251f5a	0.64500964
211	0xbf17d92f	-0.5931577
212	0x3ee82c1c	0.45346153
213	0x3e595182	0.21222499
214	0xbf4bdbdb	-0.7963235
215	0xbe0e4542	-0.13893607
216	0x3ef2e9c2	0.47443968
217	0xbeefbcce	-0.46823734
218	0x3c883925	0.016628811
219	0xbe3b1594	-0.1826995
220	0x3f1ac50d	0.60456926
221	0x3efa355b	0.48868832
222	0x3ea5c1ab	0.3237432
223	0x3ea0e515	0.31424776
224	0x3f183b21	0.59465224
225	0x3e222c21	0.15837146
226	0xbf93dad9	-1.1551162
227	0xbfdb97d3	-1.7155708
228	0x3f1c222f	0.6098966
229	0xbfe53892	-1.7907889
230	0x3f9ede99	1.2411681
231	0x3ff83c6d	1.939344
232	0xbf37e13d	-0.7182806
233	0x3fbda249	1.481515
234	0xbf549d71	-0.83052737
235	0xbca56fbe	-0.020194884
236	0xbce84b1c	-0.028356127
237	0x3f2a6548	0.6656079
238	0x3f19719a	0.5993897
239	0xbe635b30	-0.22202754
240	0x3e17f1e5	0.14838369
241	0xbfa626f0	-1.2980633
242	0xbee778f3	-0.45209464
243	0x3e7d2aad	0.24723311
244	0x3e2a2586	0.16615877
245	0x3cd55760	0.02604264
246	0xbed6c782	-0.41949087
247	0xbf5c73d0	-0.86114216
248	0x3e41ecc5	0.18937977
249	0x3e03182e	0.12802193
250	0x3f1bc92c	0.6085384
251	0xbfb8b2bd	-1.4429547
252	0xbe437877	-0.19088922
253	0x3e900e45	0.28135887
254	0xbebe70ce	-0.37195438
255	0xbe5faf44	-0.21844202

98 f4 [64]
0	0x3f0cedc0	0.5505028
1	0x3f164f68	0.58714914
2	0x3e3cc508	0.18434536
3	0xbbebd5a0	-0.007197097
4	0x3ea6ada7	0.3255436
5	0xbee88d24	-0.45420182
6	0xbd3acee4	-0.045607463
7	0x3f13b09d	0.57691365
8	0x3e5d72a0	0.21625757
9	0xbe73a540	-0.23793507
10	0xbec8b2ce	-0.39198917
11	0xbed7b8e4	-0.42133248
12	0x3e8c600b	0.27417025
13	0xbd4d54ef	-0.050129827
14	0x3d7db9a9	0.061944637
15	0x3f300938	0.68764067
16	0x3f05a512	0.52205
17	0x3f01c8a8	0.506968
18	0xbf3975aa	-0.72445166
19	0xbd558fa1	-0.05213893
20	0xbccdc38c	-0.025117658
21	0x3e936875	0.28790632
22	0x3f20777b	0.6268231
23	0x3efa9d02	0.48947912
24	0xbf0faa35	-0.5611909
25	0xbca3895c	-0.019962959
26	0x3ec93e88	0.3930552
27	0x3ef6c794	0.4819914
28	0x3f19a792	0.60021317
29	0xbdd842c3	-0.10559609
30	0xbe4e434f	-0.20142864
31	0xbef414ce	-0.47672123
32	0xbed479f4	-0.41499293
33	0xbf2a04d6	-0.6641363
34	0xbe5171e6	-0.20453605
35	0xbf0f43ba	-0.5596272
36	0x3ef2ea7e	0.47444528
37	0x3f2899db	0.65859765
38	0xbf3fb09c	-0.7487886
39	0x3da3d559	0.07999677
40	0x3e17b4ea	0.14815107
41	0xbc528098	-0.012848042
42	0x3c2376c8	0.00997705
43	0xbef910ec	-0.48645723
44	0xbed6b55d	-0.41935244
45	0xbc1561d8	-0.009117566
46	0xbf59e5da	-0.8511635
47	0x3cbc9d34	0.023024179
48	0x3ed27018	0.41101146
49	0xbe2de3f4	-0.16981488
50	0x3e8afc83	0.27145776
51	0xbef9030f	-0.48635146
52	0xbdccf064	-0.100067884
53	0x3ee7d0cb	0.45276484
54	0xbdde3e41	-0.10851718
55	0xbeacc050	-0.33740473
56	0xbf0a957c	-0.54134345
57	0xbf3f441c	-0.747133
58	0x3d35de5e	0.04440152
59	0x3ef6d508	0.48209405
60	0xbf6c686c	-0.92346835
61	0x3e930a9f	0.2871904
62	0x3f8060df	1.0029563
63	0xbd3c04c4	-0.045902982

100 f4 [128, 64, 1, 1]
0	0xbe628de0	-0.22124434
1	0x3dddebeb	0.108360134
2	0xbe6c25bc	-0.2306127
3	0xbe78e167	-0.24304734
4	0xbb39e4de	-0.0028365175
5	0x3c7d7848	0.015470572
6	0xbe0d5b2b	-0.13804309
7	0xbe86282f	-0.26202533
8	0xbcf09e58	-0.02937238
9	0xbe10936c	-0.14118737
10	0xbcb8001a	-0.022460986
11	0xbee69574	-0.450359
12	0xbced6ba1	-0.028981986
13	0xbd3bb95e	-0.045831077
14	0xbe985039	-0.29748705
15	0x3da7c277	0.08191388
16	0xbdd8257a	-0.10554023
17	0x3d147831	0.036247436
18	0xbd78e952	-0.060769387
19	0xbd80a415	-0.06281296
20	0xbe370c38	-0.17875755
21	0x3e5a7016	0.2133182
22	0xbcf9f6d4	-0.030513205
23	0xbe9b70c5	-0.30359474
24	0xbe13247a	-0.14369383
25	0xbe32b03e	-0.17450044
26	0x3e67fe0f	0.2265551
27	0xbcd50ede	-0.026008066
28	0x3db17f3d	0.08666847
29	0xbe108fbe	-0.14117333
30	0xbd5fdce4	-0.054654017
31	0xbe05a576	-0.130514
32	0xbddb1ef4	-0.10699263
33	0xbe6c223d	-0.23059936
34	0x3e9e41e6	0.30909652
35	0x3d25c0b4	0.04046698
36	0x3dd8ebe3	0.10591867
37	0x3e6f4554	0.2336629
38	0xbd58b74e	-0.052909188
39	0x3e3bcbec	0.18339509
40	0xbcd9325d	-0.026513273
41	0x3daa25c1	0.08307982
42	0x3e000dee	0.12505314
43	0x3cb4921a	0.022042323
44	0xbdb75408	-0.089515746
45	0x3e5dcb5c	0.21659607
46	0x3cc81ba6	0.024427246
47	0xbd4039b0	-0.046930015
48	0xbde6e62f	-0.11274373
49	0x3ea83e53	0.3286005
50	0x3e54fa63	0.2079864
51	0x3cb0186d	0.021496022
52	0x3e14549f	0.14485405
53	0xbdbaa369	-0.09113199
54	0xbc16f633	-0.009213972
55	0xbe1d41d8	-0.15357149
56	0x3d4ff736	0.050772868
57	0xbdb0205e	-0.085999236
58	0xbdb0c5fe	-0.08631514
59	0xbe188e2a	-0.14897981
60	0xbe66c264	-0.22535092
61	0xbe6059a3	-0.21909194
62	0x3d4980b0	0.04919499
63	0xbd115333	-0.035479736
64	0xbe5f29a7	-0.21793233
65	0xbe3a3fbd	-0.18188377
66	0xbd1c58b7	-0.038170543
67	0x3eb7fe8e	0.35936397
68	0xbde1b4de	-0.11020826
69	0x3e591642	0.21199897
70	0xbdd1964e	-0.102337465
71	0x3dd2b3df	0.10288214
72	0x3d01ffcf	0.0317381
73	0x3d7a231f	0.06106865
74	0xbd6f75d8	-0.058461994
75	0x3a3486c7	0.00068865385
76	0x3d23187f	0.039818283
77	0x3e286392	0.16444233
78	0x3e8b1456	0.27163953
79	0xbe23a82b	-0.1598212
80	0xbe22b7b3	-0.15890388
81	0xbd8b73a0	-0.06809163
82	0xbdfc865d	-0.12330315
83	0xbd25b8cf	-0.04045945
84	0xbe188f7e	-0.14898488
85	0xbe40a505	-0.1881295
86	0xbe3a9598	-0.18221128
87	0x3e6a8a99	0.22904433
88	0xbe846d4a	-0.2586463
89	0x3e8a35ea	0.26994258
90	0xbe7779f7	-0.2416762
91	0xbe5b705e	-0.21429583
92	0xbe96b826	-0.2943737
93	0xbe3e8d0f	-0.18608497
94	0x3e8ec8f5	0.27887693
95	0xbe24c256	-0.16089758
96	0x3dcf19f0	0.10112369
97	0xbe1ee3b0	-0.15516543
98	0xbdc9b65a	-0.09849234
99	0xbd5aab3a	-0.05338595
100	0x3cee3a5f	0.029080568
101	0x3cf3314f	0.029686598
102	0x3e3f7c06	0.18699655
103	0x3dd398da	0.103318885
104	0xbd52231f	-0.051303025
105	0x3e76d1b6	0.24103436
106	0x3e3fdfc8	0.1873771
107	0x3e066345	0.13123806
108	0x3ee8ac2a	0.4544385
109	0x3eaa7665	0.33293453
110	0xbe33a7a6	-0.17544422
111	0xbd4b9400	-0.04970169
112	0x3e0997bd	0.1343679
113	0xbdcd8de7	-0.10036831
114	0xbb948ea5	-0.004533606
115	0xbdd9da81	-0.106373794
116	0xbd995a4e	-0.074879274
117	0xbe756cf9	-0.23967351
118	0x3e206416	0.1566318
119	0x3e085989	0.13315405
120	0xbda7b130	-0.08188093
121	0x3e53bdf6	0.20677933
122	0x3ed2cca1	0.41171744
123	0xbd078ec1	-0.033095125
124	0xbdff099f	-0.12453007
125	0x3e38e238	0.18055046
126	0x3dcec03f	0.10095262
127	0xbd321520	-0.043477178
128	0xbb920c93	-0.0044570654
129	0x3d81c864	0.063370496
130	0x3e3b49b2	0.18289831
131	0xbdb5ff06	-0.088865325
132	0x3dd5c878	0.10438627
133	0xbd45ca12	-0.048288412
134	0x3e379118	0.17926443
135	0x3cf9a010	0.030471832
136	0x3b91c19f	0.0044481303
137	0x3c4b0e5f	0.012393563
138	0xbd22bcfd	-0.039731015
139	0xbe263141	-0.16229726
140	0xbcb7eabc	-0.022450797
141	0x3cf51bf2	0.029920552
142	0xbdb8f3f6	-0.09030907
143	0xbbbbb922	-0.0057288567
144	0x3de7800c	0.1130372
145	0x3cf2a603	0.029620176
146	0xbe12e34d	-0.14344521
147	0x3cd1fdb5	0.025633672
148	0x3e2e652f	0.17030786
149	0x3cb0438f	0.02151659
150	0xbe48e5b4	-0.19618875
151	0xbd671c93	-0.056423735
152	0x3c2b7563	0.010464999
153	0xbe1baaa2	-0.1520181
154	0xbd96ad44	-0.073572665
155	0x3cbab446	0.02279104
156	0xbd26cac4	-0.040720716
157	0x3cfb8e47	0.030707492
158	0x3e0ea2c7	0.13929282
159	0x3c584002	0.013198854
160	0x3e3313db	0.17488043
161	0xbd8f55dd	-0.06998799
162	0xbe458a56	-0.19291052
163	0xbdbf96ea	-0.093549564
164	0x3da830ca	0.08212431
165	0xbe3b51cd	-0.18292923
166	0x3c71271c	0.014718797
167	0xbe432bbe	-0.19059655
168	0x3e406da8	0.1879183
169	0x3befdb76	0.007319863
170	0xbdc4181c	-0.09574911
171	0x3e0a4fe4	0.13507038
172	0xbd8f165e	-0.06986688
173	0xbe0a9fa9	-0.13537468
174	0x3d8d0aa1	0.06886793
175	0x3e194cc9	0.14970697
176	0x3bbf043e	0.005829363
177	0xbdab706b	-0.083710514
178	0xbe074e6a	-0.13213506
179	0xbd374a25	-0.044748444
180	0x3e3c6f4c	0.18401831
181	0xbd8a4137	-0.0675072
182	0xbe397fe2	-0.1811519
183	0xbe12d2ec	-0.14338273
184	0xbd94cfd0	-0.072661996
185	0x3e295c05	0.16539009
186	0xbe0a8e80	-0.13530922
187	0xbe6c0a3d	-0.2305078
188	0xbe53dc36	-0.20689473
189	0x3e0f6e9d	0.1400704
190	0xbd8f369c	-0.06992838
191	0xbcb2289f	-0.021747885
192	0xbe226175	-0.1585749
193	0xbe758070	-0.23974776
194	0x3a8d4145	0.0010776898
195	0x3c90b714	0.017665423
196	0x3e0b7e1e	0.13622329
197	0xbd1cbca1	-0.038265828
198	0x3e0150e4	0.12628514
199	0x3dadb0a3	0.084809564
200	0xbe068a6d	-0.13138743
201	0xbe65b61f	-0.22432755
202	0x3beab046	0.0071621267
203	0xbced74eb	-0.028986415
204	0xbe53b7b7	-0.2067555
205	0xbea41e84	-0.32054532
206	0x3db49a05	0.088184394
207	0xbda4c152	-0.080446854
208	0xbd3c72c4	-0.046007887
209	0x3e8e2b65	0.27767482
210	0xbe6ee675	-0.233301
211	0xbef8eae1	-0.48616698
212	0x3e553404	0.20820624
213	0xbebae06c	-0.36499345
214	0xbe18fa5a	-0.14939252
215	0x3bb4771b	0.0055073625
216	0xbe3005bb	-0.17189686
217	0x3c6f5638	0.0146079585
218	0xbdbd44d9	-0.09241647
219	0xbe1ab651	-0.1510861
220	0x3e45c694	0.19314033
221	0xbe27874b	-0.16360204
222	0xbe3343e7	-0.17506371
223	0xbd9ccb43	-0.076559566
224	0xbe9b8aeb	-0.30379423
225	0xbe74200b	-0.23840348
226	0x3da93563	0.08262136
227	0x3dbe6a30	0.092975974
228	0xbdbbc3db	-0.09168216
229	0x3d99e912	0.07515158
230	0xbe2dacdb	-0.1696047
231	0x3e3136dc	0.17306083
232	0xbe14ad90	-0.14519334
233	0xbcc89db7	-0.024489267
234	0x3d9d01a3	0.07666328
235	0x3e1d3bbe	0.15354821
236	0xbe67f049	-0.22650255
237	0x3ea0b4eb	0.3138803
238	0x3e35835c	0.17725891
239	0xbd1878ca	-0.03722457
240	0x3e26c9ef	0.16287969
241	0x3aa1d09b	0.0012345494
242	0x3eba44b5	0.36380544
243	0xbe48f440	-0.19624424
244	0xbe003830	-0.12521434
245	0x3d6f72dc	0.058459148
246	0x3ecc10ce	0.3985657
247	0x3bc14822	0.0058984915
248	0x3e3f6a3b	0.18692867
249	0x3df61459	0.120156
250	0xbeb8ac0a	-0.36068755
251	0xbe105061	-0.14093162
252	0x3ce8b2d2	0.02840558
253	0x3c1af551	0.009457902
254	0xbedee029	-0.43530396
255	0x3ac79a6a	0.0015228514

101 f4 [128]
0	0x3f459b89	0.7719045
1	0xbd5de48d	-0.05417304
2	0x3ef87294	0.48524916
3	0x3f5e1854	0.8675587
4	0x3ded5a70	0.11589515
5	0x3f12759a	0.57210696
6	0xbf054928	-0.5206475
7	0xbe433668	-0.19063723
8	0x3ec180dc	0.37793624
9	0xbf2edd38	-0.68306303
10	0xbf2b63bd	-0.66949064
11	0x3eb5d133	0.3551117
12	0x3f0270f3	0.50953597
13	0xbd411367	-0.047137644
14	0xbebd8611	-0.37016347
15	0x3bbe5d20	0.005809441
16	0xbefb4832	-0.49078518
17	0x3f20819f	0.62697786
18	0xbe08a468	-0.13343966
19	0x3f0954f0	0.5364523
20	0xbc437e10	-0.011931911
21	0x3e23aa0f	0.15982841
22	0x3ea23f9a	0.3168915
23	0xbf40c9f0	-0.7530813
24	0xbde1e7ba	-0.110305265
25	0x3df7aa36	0.12093012
26	0x3f5d4b3e	0.86442935
27	0xbf014ee1	-0.50510985
28	0xbdbf4785	-0.09339813
29	0xbe68b396	-0.22724757
30	0xbc9d1216	-0.019173663
31	0x3df5dbac	0.1200479
32	0xbdea8d78	-0.11452764
33	0xbed433cb	-0.41445765
34	0x3f157563	0.5838224
35	0xbf4d6e43	-0.8024637
36	0x3d6ec4e8	0.058293253
37	0xbf47b54f	-0.7801103
38	0xbd638bd2	-0.055553265
39	0xbd1b3e58	-0.037901253
40	0xbe3963aa	-0.18104425
41	0x3e9e3dae	0.30906433
42	0xbe5a726e	-0.21332714
43	0xbd97541e	-0.07389091
44	0x3eed56ef	0.46355388
45	0x3f188dc1	0.595913
46	0xbe3e6f38	-0.18597114
47	0x3e90c594	0.2827574
48	0xbe5d4cf4	-0.21611387
49	0xbd4f6da8	-0.050641686
50	0xbdbf90dc	-0.093538016
51	0x3f186b7a	0.59538996
52	0x3f4e0033	0.80469054
53	0x3e95f0ef	0.2928538
54	0xbed15a01	-0.4088898
55	0xbf1fe2a9	-0.6245523
56	0x3f006379	0.50151783
57	0xbed11d36	-0.408426
58	0x3e24e2a5	0.16102083
59	0xbee29e6a	-0.44261485
60	0xbedf1e48	-0.4357779
61	0xbedb28b7	-0.428045
62	0xbd4243e8	-0.04742804
63	0x3dc4ba80	0.096058846
64	0x3dd26f44	0.102751285
65	0xbe6bbdb6	-0.23021588
66	0xbe991ebb	-0.29906258
67	0x3eb02e38	0.34410262
68	0xbed09243	-0.4073659
69	0xbf3bd12d	-0.7336605
70	0x3df20654	0.11817613
71	0xbf20adbe	-0.6276511
72	0xbf8fc2fa	-1.1231377
73	0xbefc7a5c	-0.49312103
74	0x3ec87f44	0.39159596
75	0xbf16b488	-0.5886922
76	0xbf8ddb86	-1.1082618
77	0xbeea6c56	-0.4578578
78	0x3f00b3ba	0.5027424
79	0x3edb08d6	0.4278018
80	0x3f2c962a	0.6741663
81	0xbea28d2d	-0.31748334
82	0xbdf14a88	-0.11781794
83	0x3f1c2808	0.6099858
84	0x3f0bd222	0.5461751
85	0xbe54b33a	-0.20771495
86	0xbdc58155	-0.09643809
87	0xbd8f3958	-0.06993359
88	0x3e57d4b4	0.21077234
89	0xbde4212e	-0.11139141
90	0xbf2416ca	-0.64097273
91	0xbf0733e0	-0.5281353
92	0xbee29f5c	-0.44262207
93	0x3f580421	0.843813
94	0x3eda5a78	0.42647147
95	0xbe884c2b	-0.26620612
96	0x3f069aca	0.5257994
97	0xbf30f19e	-0.6911868
98	0x3ea6b445	0.3255941
99	0x3f0bcdb0	0.5461073
100	0xbcd6a688	-0.026202455
101	0xbf17a28a	-0.5923239
102	0x3e52caed	0.20585223
103	0x3f2cd276	0.6750864
104	0x3d3f79be	0.04674696
105	0x3f1d954f	0.6155595
106	0xbef50e2c	-0.47862375
107	0x3e877bee	0.26461738
108	0xbdd79c87	-0.10527902
109	0x3eaa1b64	0.33224022
110	0x3e8c87d4	0.2744738
111	0xbfa18624	-1.2619061
112	0xbebbcc86	-0.36679476
113	0x3e8f803d	0.28027526
114	0x3eeea706	0.46611804
115	0xbe27a0e3	-0.16369967
116	0xbe7eb75a	-0.2487463
117	0xbe8c5d20	-0.274148
118	0xbf1e1d65	-0.617636
119	0x3f31fb9e	0.6952456
120	0x3e711098	0.23541486
121	0xbdd27834	-0.10276833
122	0xbf0d0c68	-0.55097055
123	0xbe9a8e57	-0.30186722
124	0xbec9485f	-0.39313027
125	0x3ecf8738	0.4053285
126	0xbed00b55	-0.40633646
127	0x3bd3dd4e	0.0064655906
